m6Aiso/module/model_read_0_12.pt (torch, 313896 bytes, 19 tensors)

weight f4 [2, 4, 5]
0	0xbeafc1c5	-0.34327522
1	0x3cfe3b95	0.03103427
2	0xbd8def70	-0.06930435
3	0x3b46bbde	0.003032438
4	0xbcd08cd3	-0.025457775
5	0x3e40871c	0.1880154
6	0xbd120fe8	-0.0356597
7	0xbe360b1d	-0.17777677
8	0xbefe2efc	-0.4964522
9	0xbdd31c62	-0.10308148
10	0xbe3b51e8	-0.18292964
11	0x3dab5ea9	0.08367664
12	0xbefb03be	-0.49026293
13	0xbd6fdcae	-0.058560066
14	0xbde51b8e	-0.11186896
15	0xbc993d41	-0.018705966
16	0xbecbf95f	-0.39838693
17	0x3e45000a	0.19238296
18	0xbd57ff07	-0.052733447
19	0xbd302df5	-0.043012578
20	0x3d62ea56	0.05539926
21	0x3cf0e297	0.029404921
22	0x3e01785a	0.12643567
23	0x3e5bbaa4	0.21457916
24	0xbd57830b	-0.052615207
25	0x3d9ad78a	0.07560642
26	0x3dd85ad3	0.10564198
27	0x3e23a2c0	0.15980053
28	0x3e33aaf3	0.1754568
29	0x3c92779a	0.017879296
30	0x3e1909a3	0.14945082
31	0x3ddaad18	0.10677546
32	0x3bbca55f	0.0057570185
33	0x3e18b0c0	0.14911175
34	0x3dc47a01	0.09593583
35	0x3d9a7f6b	0.07543834
36	0xbe25774d	-0.16158791
37	0xbcb87c2c	-0.022520147
38	0xbe214298	-0.1574806
39	0xbc3b827e	-0.011444686

weight f4 [32, 1, 3, 3]
0	0xbdf2be5d	-0.11852715
1	0xbea27ed8	-0.317374
2	0x3e6cc85a	0.23123303
3	0x3e48d716	0.19613299
4	0xbe66e406	-0.22547922
5	0x3e37d5bc	0.17952627
6	0xbf07cdb2	-0.5304824
7	0x3d1fd49c	0.03902112
8	0x3e984b31	0.29744866
9	0x3e35561a	0.17708626
10	0xbe6ba0cb	-0.23010556
11	0x3e5cd6b3	0.21566276
12	0x3e3b882c	0.18313664
13	0x3cc4d3a1	0.024026694
14	0x3cff1b57	0.031140966
15	0xbd25f943	-0.040520918
16	0xbf0df02c	-0.554446
17	0x3f2ec659	0.68271405
18	0x3d9430e9	0.07235891
19	0xbed94e5a	-0.4244259
20	0x3dc57511	0.09641469
21	0x3eabf5e1	0.33586028
22	0xbee89ee8	-0.45433736
23	0xbd70c683	-0.058783066
24	0xbe91d6c8	-0.28484178
25	0xbf16eac8	-0.58952
26	0x3e836bf5	0.25668302
27	0x3dbfc9fb	0.093646966
28	0xbe9833b7	-0.29726955
29	0x3e86dd48	0.263407
30	0x3f04892c	0.5177181
31	0x3e7efc58	0.24900949
32	0xbec066b3	-0.37578353
33	0xbf2b7e87	-0.6698994
34	0x3e3b3f0a	0.18285766
35	0x3d99396e	0.07481657
36	0x3eae1964	0.34003747
37	0xbf14bc86	-0.58100164
38	0x3d0ff4a1	0.035145406
39	0xbd8b6d19	-0.06807918
40	0x3eb922d5	0.36159387
41	0xbe1f910b	-0.15582673
42	0xbe744306	-0.23853692
43	0xbdcebb75	-0.10094348
44	0xbe16d796	-0.14730677
45	0xbcbdff46	-0.023193013
46	0xbd37fc22	-0.044918187
47	0x3ee1f1a2	0.44129664
48	0x3dd16ed4	0.10226217
49	0x3e838c15	0.25692812
50	0xbec64009	-0.3872073
51	0x3e6e69e5	0.23282583
52	0x3e3d30e6	0.18475685
53	0x3f1ab74f	0.60435957
54	0x3d3b7b43	0.04577185
55	0x3e6d42fd	0.23170085
56	0x3ebe2f72	0.37145573
57	0x3e1d47ef	0.15359472
58	0x3e3cd8d4	0.18442088
59	0xbe01b472	-0.1266649
60	0x3f128c63	0.57245463
61	0x3ebe1722	0.37127024
62	0x3f0d142a	0.5510889
63	0xbd28ac62	-0.041180022
64	0xbd8f6d40	-0.0700326
65	0xbe371e0e	-0.17882559
66	0xbe9938ad	-0.29926053
67	0x3ed517f2	0.4161983
68	0x3de4cb0b	0.1117154
69	0xbde5a4a5	-0.11213044
70	0x3e46cd7e	0.19414327
71	0xbf217653	-0.63071173
72	0x3dcd5d7a	0.10027595
73	0x3e80942e	0.25113052
74	0x3dc85eb7	0.097836904
75	0x3e996726	0.2996151
76	0xbe8114f7	-0.25211307
77	0x3c91db12	0.017804656
78	0x3e804f44	0.25060475
79	0x3f3556f6	0.70835817
80	0x3ce6eee6	0.028190088
81	0x3d7dc1d2	0.06195242
82	0x3ed00f5c	0.40636718
83	0xbda398bc	-0.07988116
84	0x3c9bf37a	0.019036997
85	0x3da6ebd6	0.08150451
86	0xbc3d473e	-0.01155263
87	0x3d6b5fe1	0.057464484
88	0x3f8f8861	1.1213495
89	0x3d41575a	0.047202446
90	0xbe1f9dcb	-0.15587537
91	0x3e56d4af	0.2097957
92	0xbe2d3a05	-0.16916664
93	0xbee4cb15	-0.4468619
94	0x3eb5e107	0.35523245
95	0xbea78570	-0.32718992
96	0x3ed15369	0.4088395
97	0xbe55ad8b	-0.20866983
98	0xbdf6d1ba	-0.12051721
99	0xbcaeef55	-0.021354357
100	0xbe1e52ca	-0.15461269
101	0xbe432129	-0.19055618
102	0x3e34f1a2	0.176703
103	0x3f002858	0.5006156
104	0xbe32f348	-0.17475617
105	0xbdc08bd9	-0.09401674
106	0xbf172bf3	-0.59051436
107	0x3de69626	0.11259107
108	0xbda4e4a1	-0.0805142
109	0xbd97a964	-0.074053556
110	0xbe591a81	-0.21201517
111	0xbeaca264	-0.33717644
112	0x3ee26673	0.44218788
113	0x3d8988e0	0.0671556
114	0xbdf1f7a8	-0.11814815
115	0x3e65083d	0.22366424
116	0xbf31b89d	-0.6942232
117	0xbcc30ada	-0.023808885
118	0x3ea3674d	0.3191475
119	0x3e890953	0.26764926
120	0xbd8c8858	-0.06861943
121	0x3ef3e116	0.47632664
122	0xbeadcbe5	-0.33944622
123	0x3e8790fd	0.26477805
124	0x3f2a6cd5	0.66572315
125	0x3eda7a9e	0.42671674
126	0x3d8b9cfc	0.06817052
127	0x3ea453a6	0.3209507
128	0x3e1539e5	0.14572866
129	0x3d2b12d0	0.041765988
130	0x3d27a12c	0.04092519
131	0xbdefb1f6	-0.11703865
132	0x3dd2abec	0.10286698
133	0x3f5cfeab	0.8632609
134	0xbe50436c	-0.2033822
135	0xbe32705a	-0.17425671
136	0x3b2b01bf	0.002609357
137	0xbe7baed9	-0.24578418
138	0x3dca3f66	0.098753735
139	0x3e113ac1	0.14182569
140	0xbe7cda51	-0.24692656
141	0xbeb450a5	-0.35217777
142	0x3e4f45b2	0.2024143
143	0xbf2fbe8c	-0.68650126
144	0xbee5dd04	-0.44895184
145	0x3d186455	0.03720506
146	0xbeb43364	-0.35195458
147	0x3e8c0f31	0.2735534
148	0x3e0811fd	0.13288112
149	0xbeb0a03c	-0.3449725
150	0xbf1c20f5	-0.6098779
151	0xbefa4424	-0.48880112
152	0xbe88a266	-0.266864
153	0x3ea1d309	0.3160632
154	0xbe9af2d5	-0.3026339
155	0xbda3579a	-0.07975693
156	0xbd04b120	-0.032395482
157	0xbeb8a169	-0.36060646
158	0x3ef06e84	0.46959317
159	0x3ecb9d17	0.39768288
160	0xbef28fd9	-0.47375372
161	0x3e6bfc65	0.230455
162	0x3c600a0b	0.013674269
163	0xbea5154d	-0.32242814
164	0xbe5d9377	-0.21638285
165	0xbd824616	-0.06361024
166	0xbd5abc6c	-0.05340235
167	0x3e33c580	0.17555809
168	0xbf125d8d	-0.57174
169	0xbc9a5b83	-0.018842464
170	0xbef60ade	-0.48055166
171	0xbd9bb7b8	-0.07603401
172	0x3e594462	0.21217492
173	0xbe585b4b	-0.21128576
174	0x3ea364d4	0.31912863
175	0xbee1ec63	-0.4412566
176	0x3eaeeb61	0.34163955
177	0xbe7f339f	-0.24922036
178	0xbe31c9c0	-0.17362118
179	0x3dd947dc	0.10609409
180	0xbd8acf0f	-0.067777745
181	0xbea6580b	-0.32489046
182	0xbd5dc87f	-0.054146286
183	0xbe60aec6	-0.21941671
184	0x3e1bff6c	0.15234154
185	0xbe066cc1	-0.13127424
186	0xbdf0c786	-0.11756806
187	0xbf6c59e0	-0.9232464
188	0x3e0e2bdd	0.1388392
189	0xbe347d22	-0.1762586
190	0xbe02c9cb	-0.1277229
191	0xbe5f0020	-0.21777391
192	0xbea6ff8c	-0.32616842
193	0x3e9f9062	0.31164843
194	0xb9e11d98	-0.00042937393
195	0xbf21d122	-0.63209736
196	0xbd79ce52	-0.060987778
197	0xbdeab547	-0.11460357
198	0xbe64e171	-0.22351624
199	0x3ec19ccd	0.37814942
200	0x3e2e3206	0.1701127
201	0x3e0c8579	0.13722791
202	0xbd849084	-0.06472877
203	0x3d5365e1	0.05161083
204	0x3e48bc6e	0.1960313
205	0x3f52ab31	0.8229247
206	0xbe54d807	-0.20785533
207	0xbe79c00c	-0.24389666
208	0x3e7d5f1f	0.24743317
209	0x3ea99012	0.3311773
210	0x3ec7ff77	0.39062092
211	0xbeb8fd7e	-0.361309
212	0x3e779ec0	0.24181652
213	0xbdd06a75	-0.10176555
214	0x3f0833a6	0.5320381
215	0x3deffebf	0.11718511
216	0x3d6fd40c	0.058551833
217	0xbe2427dc	-0.1603083
218	0x3ea82aeb	0.32845244
219	0x3f078c43	0.529484
220	0xbed549e6	-0.41657943
221	0x3e585474	0.21125966
222	0xbeaae65b	-0.33378872
223	0x3f26084d	0.64856416
224	0x3e27b725	0.16378458
225	0x3e63e8ae	0.22256729
226	0x3e668c67	0.22514497
227	0x3e1e585a	0.15463391
228	0x3c790cc2	0.015200796
229	0x3d07ec2e	0.033184223
230	0xbdfd1e5e	-0.12359308
231	0x3ea0ed81	0.314312
232	0x3f3d4c73	0.7394478
233	0xbdff33eb	-0.124610744
234	0x3ce7fee4	0.028319784
235	0xbeb48d3e	-0.3526401
236	0xbcaae9ca	-0.020863432
237	0xbd922d47	-0.07137542
238	0xbc84bfb6	-0.016204696
239	0x3be2afb9	0.0069179204
240	0x3d9ed8c8	0.077561915
241	0xbf67ebfb	-0.9059445
242	0x3ea8f4bc	0.32999218
243	0xbd52724c	-0.051378533
244	0x3e89060e	0.26762432
245	0x3e657529	0.22407974
246	0x3e8d0b01	0.27547458
247	0xbe630333	-0.22169189
248	0x3cf2ebc4	0.029653437
249	0x3d072098	0.03299007
250	0x3f3a854d	0.7285965
251	0xbd20765a	-0.03917537
252	0x3eb7e125	0.3591396
253	0x3de7d902	0.11320688
254	0x3e8536d1	0.26018384
255	0x3db92cff	0.090417854

weight f4 [32]
0	0x40364684	2.848054
1	0x40372446	2.861589
2	0x401ee555	2.4827473
3	0x40c33c9d	6.101149
4	0x406d0577	3.7034585
5	0x40266f9d	2.6005623
6	0x3eb31c47	0.3498251
7	0x406b83d2	3.6799207
8	0x401f39ba	2.4878983
9	0x40c33b8c	6.101019
10	0x4086bc2b	4.2104697
11	0x40319ac6	2.7750716
12	0x4042c61e	3.043342
13	0x3feafa35	1.8357607
14	0x3fda109e	1.7036321
15	0x3fbe8551	1.4884435
16	0x407a1a37	3.90785
17	0x406d4a1c	3.7076483
18	0x40509973	3.2593658
19	0x3fe080fe	1.7539365
20	0x409a9192	4.83027
21	0x3ffda03f	1.9814528
22	0x4082e195	4.090037
23	0x406b5ab4	3.677411
24	0x40b11f15	5.535044
25	0x402de295	2.7169545
26	0x409f9ffd	4.98828
27	0x404e093e	3.219314
28	0x409486b0	4.6414413
29	0x3f8d833b	1.1055673
30	0x40cdb247	6.4280124
31	0x404912e4	3.141778

bias f4 [32]
0	0xbf1c60af	-0.6108503
1	0xbebff16a	-0.37488872
2	0x3f868d0d	1.0511795
3	0xbe90762b	-0.28215155
4	0xbf85b65c	-1.0446277
5	0xbf5734ef	-0.84065145
6	0xbe88e2ce	-0.26735538
7	0xbf2146cd	-0.6299866
8	0xbf5f19a7	-0.8714852
9	0x3eda832b	0.42678198
10	0xbd32ff8e	-0.043700747
11	0xbf00d026	-0.5031761
12	0xbefc1a2c	-0.49238718
13	0xbf71d166	-0.9446014
14	0xbee7da0c	-0.45283544
15	0x3f76e0f2	0.9643699
16	0x3f64efaa	0.894282
17	0xbe614ec6	-0.22002706
18	0x3f0ac041	0.54199606
19	0xbeb885d5	-0.36039606
20	0x3f83569b	1.0260805
21	0x3f6510e0	0.89478874
22	0xbfa35e81	-1.2763215
23	0xbeea2403	-0.457306
24	0x3ead8aef	0.3389506
25	0xbf48e686	-0.7847675
26	0x3edbfc62	0.4296599
27	0xbf8fece8	-1.1244173
28	0xbc3c9e12	-0.011512296
29	0xbf1bb4e1	-0.60822874
30	0x3e598389	0.21241583
31	0xbfa21fa9	-1.2665912

running_mean f4 [32]
0	0xbd49d1b5	-0.049272258
1	0xbbd396b1	-0.006457173
2	0xbe216e37	-0.157647
3	0xbb078bda	-0.0020682723
4	0xbd88e0df	-0.06683516
5	0x3e25b35e	0.16181704
6	0x3e88090a	0.26569396
7	0xbd4cd9cc	-0.050012395
8	0x3e4a9b4d	0.19785805
9	0x3e86987f	0.2628822
10	0xbc881179	-0.016609894
11	0xbd9b29fd	-0.07576368
12	0xbd766aad	-0.060160328
13	0x3e88287c	0.26593387
14	0x3e3efe08	0.18651593
15	0xbdcaca2c	-0.099018425
16	0xbe617f97	-0.22021328
17	0xbd00a074	-0.03140302
18	0xbe2d3149	-0.16913332
19	0xbd4142c7	-0.047182824
20	0xbe57117b	-0.21002762
21	0xbe075ddf	-0.13219403
22	0x3e37814d	0.17920418
23	0x3df57c25	0.11986569
24	0x3de31d24	0.110895425
25	0x3e4ccda7	0.20000325
26	0xbe1c103b	-0.15240566
27	0x3e25e868	0.16201937
28	0x3e63705b	0.22210829
29	0xbe16cc32	-0.14726332
30	0xbe2f236b	-0.17103355
31	0xbddc9319	-0.10770244

running_var f4 [32]
0	0x3c1c6125	0.009544645
1	0x3c5676fd	0.013089892
2	0x3cbefa7e	0.023312803
3	0x3d2cb58d	0.042165328
4	0x3ca3c889	0.019993084
5	0x3cc0b543	0.023523932
6	0x3ccd8a13	0.025090253
7	0x3cbdbe24	0.023161955
8	0x3c7c34e9	0.015393474
9	0x3cf93718	0.030421779
10	0x3c585a00	0.013205051
11	0x3d266e09	0.04063228
12	0x3cc1131f	0.023568688
13	0x3cfff0b1	0.0312427
14	0x3c2e6cb7	0.010646037
15	0x3c3e2cdb	0.011607374
16	0x3cf1f6f3	0.0295367
17	0x3cc2a63e	0.023760911
18	0x3c6609ea	0.01404045
19	0x3c83dfb8	0.016097888
20	0x3c6b3df1	0.01435803
21	0x3ca7f744	0.020503648
22	0x3c5352d6	0.012898168
23	0x3c53e492	0.012932913
24	0x3c85cd4d	0.016333247
25	0x3c49f522	0.012326511
26	0x3c10ada0	0.008830458
27	0x3c1deb42	0.009638609
28	0x3c8ad714	0.01694826
29	0x3db5861d	0.08863471
30	0x3c7a9177	0.015293471
31	0x3ccd2610	0.025042564

weight f4 [128, 32, 3, 3]
0	0xbec29317	-0.38002846
1	0x3e924c20	0.28573704
2	0xbefb0f75	-0.4903523
3	0xbdabd7ad	-0.08390746
4	0x3e44c3df	0.19215344
5	0xbe95c724	-0.29253495
6	0xbeb0d245	-0.34535423
7	0x3ebe170d	0.3712696
8	0x3d028bbb	0.03187154
9	0xbef4235d	-0.4768323
10	0x3da05898	0.07829398
11	0x3e31b4aa	0.17354074
12	0xbf23a19c	-0.6391847
13	0x3e89163c	0.26774776
14	0x3df58779	0.1198873
15	0xbe5d0086	-0.21582231
16	0x3e298c75	0.16557486
17	0x3ec0b7ca	0.3764022
18	0xbe1f6f5a	-0.15569821
19	0xbe63ba87	-0.22239123
20	0x3e789dc3	0.24278931
21	0xbe9b73ae	-0.30361694
22	0xbcc35ef4	-0.023848988
23	0xbe79c706	-0.24392328
24	0x3e3c75c0	0.18404293
25	0xbd872846	-0.065994784
26	0xbd815e73	-0.06316843
27	0x3dbace5a	0.0912139
28	0xbeacc39c	-0.33742988
29	0x3e10e903	0.14151387
30	0xbe15cd0b	-0.14628999
31	0xbdf206c8	-0.118177
32	0xbe93bb92	-0.28854042
33	0xbbb59d3c	-0.0055424254
34	0xbd360b88	-0.04444459
35	0x3e8e948b	0.27847704
36	0xbdfc2cce	-0.12313233
37	0x3cb1c6ba	0.021701206
38	0x3dba5cea	0.09099753
39	0xbe193850	-0.14962888
40	0xbe28badf	-0.16477536
41	0x3e4f684a	0.20254627
42	0x3ecf08a9	0.40436295
43	0xbdf6a044	-0.12042287
44	0xbddde7e8	-0.10835248
45	0xbe5c6322	-0.21522191
46	0xbcf7e62b	-0.03026112
47	0xbe297d32	-0.16551664
48	0xbeebe91c	-0.46076286
49	0x3dc3d756	0.095625564
50	0xbe67c768	-0.22634661
51	0xbe4dbfbe	-0.20092675
52	0xbe949934	-0.29023135
53	0xbd700311	-0.058596674
54	0xbe3125b3	-0.17299537
55	0x3e59324f	0.21210597
56	0xbea02cff	-0.3128433
57	0xbe313959	-0.17307033
58	0xbe42b4f7	-0.19014345
59	0xbe1e0ed2	-0.15435341
60	0xbc65e7cd	-0.014032316
61	0xbe973457	-0.2953212
62	0xbe1c66e5	-0.15273626
63	0xbdd45cf3	-0.10369291
64	0x3c9aadf0	0.018881768
65	0xbdb7714f	-0.08957159
66	0x3bb0c26d	0.005394271
67	0xbe26cc8f	-0.1628897
68	0xbd78757c	-0.060658917
69	0x3d9d574f	0.076826684
70	0x3d820356	0.063482925
71	0x3e1764f9	0.14784612
72	0xbddd3e26	-0.108028695
73	0xbf39149f	-0.7229709
74	0xbe941b38	-0.28927016
75	0x3f107ad0	0.56437397
76	0xbf225305	-0.6340793
77	0x3ee94b33	0.45565185
78	0x3e672fc5	0.22576816
79	0x3e53488b	0.20633142
80	0xbece2cb6	-0.40268487
81	0xbc7dc595	-0.015489002
82	0xbe2a682b	-0.166413
83	0xbe0ac6f1	-0.13552453
84	0xbcc8c14d	-0.024506235
85	0xbf03e5f6	-0.5152277
86	0x3ed5ba27	0.41743585
87	0xbda43b96	-0.080191776
88	0x3e7eea95	0.24894173
89	0xbe981803	-0.2970582
90	0x3e21b61c	0.15792125
91	0xb9f26012	-0.00046229415
92	0xbe1b61df	-0.15174054
93	0x3e2c864a	0.16848102
94	0xbe28596a	-0.16440359
95	0xbd1118e6	-0.035424136
96	0x3d948320	0.072515726
97	0xbe14cb97	-0.14530788
98	0x3e2b5424	0.16731316
99	0x3d2e6a1f	0.042581674
100	0x3d290b0b	0.041270297
101	0x3e8b2051	0.27173093
102	0x3e7889e8	0.24271357
103	0xbe869b7d	-0.26290503
104	0x3e007b12	0.12546948
105	0x3d30a408	0.043125182
106	0xbdbae3f7	-0.09125512
107	0xbdf2703a	-0.11837812
108	0x3d02413d	0.031800497
109	0xbc774966	-0.015093183
110	0x3d1b3b25	0.0378982
111	0x3e53f829	0.20700134
112	0xbc861666	-0.016368102
113	0xbd5e9fd3	-0.05435164
114	0xbcd0bd15	-0.025480786
115	0xbd8698c7	-0.06572109
116	0x3edb3305	0.42812362
117	0x3c54e0c7	0.012993044
118	0xbe39d132	-0.18146208
119	0xbd5258f4	-0.051354364
120	0xbd10caed	-0.035349775
121	0x3e5b88ad	0.21438856
122	0x3d93561b	0.07194158
123	0xbe1e593e	-0.1546373
124	0xbee86687	-0.45390722
125	0xbdba52e9	-0.09097845
126	0x3ea7d6d0	0.32781076
127	0xbe7d332e	-0.24726555
128	0xbdf2f44c	-0.11863002
129	0x3c5c320b	0.013439666
130	0xbf534788	-0.82531023
131	0x3ee72faf	0.45153567
132	0x3ded79ba	0.11595483
133	0xbe09ed82	-0.13469508
134	0xbe3f3874	-0.18673879
135	0x3ec963ac	0.39333856
136	0xbd4ea37d	-0.050448883
137	0xbcd6492b	-0.026157936
138	0x3ed12a80	0.40852737
139	0xbe052a9c	-0.13004535
140	0x3d352539	0.04422495
141	0x3e28b7e6	0.16476402
142	0xbe29b4fd	-0.16572948
143	0xbe079826	-0.13241634
144	0x3e2b2297	0.16712414
145	0x3efcbb46	0.49361628
146	0x3e8f3861	0.279727
147	0x3d916886	0.071000144
148	0x3eab7e6a	0.33494884
149	0xbea7d91f	-0.32782838
150	0x3d6b6d3c	0.05747722
151	0xbe5e7f61	-0.21728279
152	0xbe63cffb	-0.22247307
153	0xbe571770	-0.21005034
154	0x3b60abae	0.0034282017
155	0xbdedac5d	-0.11605141
156	0x3e063c53	0.1310895
157	0x3d860b75	0.06545154
158	0xbcb3aded	-0.02193352
159	0xbd9a8c8e	-0.0754634
160	0x3d77be21	0.060484055
161	0xbee23fa3	-0.44189176
162	0xbde848c0	-0.11342001
163	0xbe315b78	-0.17320049
164	0x3e200b03	0.156292
165	0x3e26482d	0.1623847
166	0x3e6100fe	0.21973035
167	0x3c874b54	0.016515411
168	0xbe74853d	-0.23878951
169	0x3e08b6e3	0.13351016
170	0x3d9c5a77	0.07634442
171	0xbe19156f	-0.14949583
172	0x3d878ac6	0.06618266
173	0xbe4f311b	-0.20233576
174	0x3ec5f235	0.38661352
175	0x3c3077a3	0.010770711
176	0x3df1efe9	0.11813337
177	0xbee60119	-0.44922712
178	0xbb37bf24	-0.0028037513
179	0xbe46b6da	-0.1940569
180	0x3eabb72e	0.33538193
181	0x3eb5d4d7	0.35513946
182	0x3f01872e	0.5059689
183	0xbee07148	-0.43836427
184	0x3f165fcd	0.5873993
185	0xbf3bf5f2	-0.7342216
186	0xbdda3871	-0.106552966
187	0xbdead384	-0.11466125
188	0x3e9707f0	0.29498243
189	0x3ec03e23	0.37547407
190	0x3df16236	0.117863104
191	0x3eb1e412	0.34744316
192	0xbe957888	-0.2919352
193	0x3e2e9ea1	0.170527
194	0x3e82c1a9	0.25538376
195	0xbdb6c3ad	-0.08924041
196	0xbda3653c	-0.07978293
197	0x3f3ee59f	0.74569124
198	0x3d9028b9	0.07039017
199	0xbf04e131	-0.51906115
200	0xbf0238e6	-0.5086807
201	0x3d1eba28	0.03875175
202	0xbe826c20	-0.25473118
203	0xbdea7e17	-0.11449831
204	0x3e00f908	0.12594998
205	0xbdb2286a	-0.086991146
206	0x3e9d8606	0.30766314
207	0x3b3d74a1	0.0028908628
208	0xbec27261	-0.3797789
209	0xbf044c50	-0.51678944
210	0x3e574ed0	0.21026158
211	0xbe6339f9	-0.22190084
212	0x3f374e5f	0.7160396
213	0xbdb0980f	-0.08622753
214	0x3cb3c1a4	0.021942921
215	0xbe019bdb	-0.1265711
216	0xbe9675a1	-0.2938662
217	0xbc9ca8da	-0.019123483
218	0xbe8ad819	-0.27117994
219	0xbde2b1ef	-0.110690944
220	0xbebf9a3b	-0.37422356
221	0x3d1d4c1c	0.03840266
222	0xbe102dbe	-0.1407995
223	0x3e1d62c2	0.15369704
224	0xbef1f76b	-0.47259077
225	0x3aa14160	0.0012302808
226	0xbf0014b9	-0.5003162
227	0x3e2bd3af	0.1677997
228	0x3e384038	0.17993248
229	0xbf498e9c	-0.7873323
230	0x3deb8e95	0.11501805
231	0x3ce97464	0.028497882
232	0xbd7bd436	-0.061481677
233	0xbe895898	-0.26825404
234	0xbe81b814	-0.25335753
235	0xbe19914a	-0.1499683
236	0x3eb8c463	0.3608733
237	0xbe5757d8	-0.21029603
238	0x3f2bce56	0.6711172
239	0xbf292a0f	-0.660798
240	0x3d5ac8e5	0.053414244
241	0x3e0cb987	0.13742648
242	0x3ce5aca1	0.028036417
243	0xbd7409e3	-0.05957974
244	0xbeb33030	-0.34997702
245	0xbe827fbb	-0.25488076
246	0x3de25dc0	0.11053038
247	0xbf1ce41a	-0.61285555
248	0x3f0b7e1a	0.5448929
249	0xbb73510d	-0.0037127167
250	0xbe61775f	-0.22018193
251	0xbe807e22	-0.25096232
252	0x3d9d7a54	0.07689348
253	0xbebc93d8	-0.36831546
254	0xbe33b385	-0.1754895
255	0x3c7e70c2	0.015529813

weight f4 [128]
0	0x40b6ce86	5.7127104
1	0x40e50f6b	7.158132
2	0x40823272	4.068658
3	0x40a97425	5.295428
4	0x40b7564a	5.7292833
5	0x408e2e9b	4.443189
6	0x40bd4eb7	5.9158587
7	0x40c52c3b	6.161649
8	0x40b1f881	5.561585
9	0x40d14c42	6.540559
10	0x405acbd0	3.4186897
11	0x408b00d8	4.343853
12	0x409fd413	4.994638
13	0x40955c5b	4.667524
14	0x409978bd	4.7959886
15	0x409aa3e3	4.8325057
16	0x409a0c54	4.814005
17	0x408c7fd6	4.390605
18	0x40d5f938	6.686672
19	0x40d490bc	6.642668
20	0x40b49176	5.6427565
21	0x40844aae	4.134116
22	0x40c514a1	6.158768
23	0x409f0d06	4.97034
24	0x40aa0575	5.313166
25	0x40bbb9d0	5.866432
26	0x409694b7	4.7056537
27	0x409d7f0e	4.9217596
28	0x40b687af	5.704063
29	0x409843e0	4.7582855
30	0x40955d7c	4.6676617
31	0x40b67766	5.702075
32	0x40b19315	5.5492043
33	0x40de8f94	6.9550266
34	0x40aae80d	5.3408265
35	0x40be9b8d	5.956488
36	0x409c8dfd	4.8923326
37	0x4090b38d	4.521918
38	0x409c3f5b	4.882734
39	0x4096d06e	4.712943
40	0x40d05e23	6.5114913
41	0x409dc117	4.9298205
42	0x4095fadc	4.6868725
43	0x40b3c4d0	5.617775
44	0x40bf215a	5.972821
45	0x40b6fb24	5.718157
46	0x408a08e6	4.313586
47	0x409917e2	4.7841654
48	0x40d6cd0f	6.7125316
49	0x408f7ff1	4.484368
50	0x40ba07ef	5.8134685
51	0x40ac8c42	5.3921213
52	0x40982313	4.7542815
53	0x409df215	4.935801
54	0x4081c280	4.0549927
55	0x40c41d35	6.1285653
56	0x40a37e52	5.10917
57	0x40c662bc	6.1995525
58	0x408b8ccb	4.3609366
59	0x40af431c	5.476942
60	0x40a99993	5.299997
61	0x409056dd	4.5106034
62	0x409e7622	4.9519205
63	0x40c41b83	6.1283584
64	0x408a267e	4.3171988
65	0x40a1aceb	5.052358
66	0x40b26431	5.5747304
67	0x4086b437	4.209499
68	0x40a13497	5.0376697
69	0x40bd376f	5.913017
70	0x40991a64	4.7844715
71	0x40aabee5	5.3358026
72	0x40b5d40d	5.682135
73	0x408c0d81	4.3766484
74	0x4097a871	4.7393117
75	0x40737ae4	3.8043756
76	0x40892f48	4.2870216
77	0x408a525a	4.3225527
78	0x40bff7b0	5.9989853
79	0x40984550	4.758461
80	0x40fc7b2e	7.8900366
81	0x40a3b8ad	5.1162934
82	0x40772427	3.8615816
83	0x409cc903	4.8995376
84	0x40dd698f	6.9191356
85	0x4077f577	3.874357
86	0x40c27ae5	6.077502
87	0x40a024c3	5.0044875
88	0x40cf1c54	6.472208
89	0x4082fd20	4.093399
90	0x40c2384d	6.0693727
91	0x409b6bfb	4.856931
92	0x40924153	4.570474
93	0x40eac7a9	7.3368726
94	0x40edf866	7.436572
95	0x40a7cae3	5.2435164
96	0x40488a52	3.1334424
97	0x407b4204	3.9259043
98	0x40c16df7	6.0446734
99	0x40b8ff69	5.781178
100	0x408998d8	4.2999077
101	0x40990115	4.781382
102	0x40a86d4d	5.2633424
103	0x40b90433	5.7817626
104	0x409f6526	4.981097
105	0x4096b069	4.7090344
106	0x40ac524a	5.385045
107	0x40b98725	5.797747
108	0x40aa5525	5.3228936
109	0x408951ae	4.2912207
110	0x40901182	4.502137
111	0x40b489ab	5.641805
112	0x4098d8c6	4.7764616
113	0x409d6bd9	4.919415
114	0x40a5df99	5.1835446
115	0x4051020e	3.2657504
116	0x405ee600	3.482788
117	0x4087fe00	4.249756
118	0x40c41e86	6.128726
119	0x40b00d8b	5.501653
120	0x408dfbe6	4.4369993
121	0x407a5136	3.9112067
122	0x4099ee8c	4.8103695
123	0x40a7c18e	5.2423773
124	0x408783f8	4.2348595
125	0x40a29f2b	5.0819297
126	0x40585faa	3.3808389
127	0x409c5480	4.885315

bias f4 [128]
0	0x3d44c0be	0.048035376
1	0x3ec37fc3	0.38183412
2	0xbea62ca8	-0.32455945
3	0x3e76aecb	0.24090116
4	0xbebe697b	-0.3718985
5	0x3eee2890	0.46515322
6	0xbf435ed5	-0.7631658
7	0x3dbf1abd	0.09331272
8	0x3e98dfc0	0.29858208
9	0xbd881baa	-0.066459015
10	0x3eb99e41	0.3625355
11	0xbf480376	-0.7813028
12	0x3e0c559f	0.13704537
13	0x3ee9f52a	0.45694858
14	0xbf061974	-0.5238259
15	0xbf0ee74a	-0.5582167
16	0x3e692661	0.22768547
17	0x3d7933f9	0.06084058
18	0x3d67cc2c	0.056591198
19	0xbe3b8880	-0.1831379
20	0xbd8b3080	-0.0679636
21	0x3f32cbd1	0.6984225
22	0xbd5a0695	-0.053228933
23	0x3e6615bb	0.22469227
24	0x3db968d8	0.090532005
25	0xbe542454	-0.20716983
26	0x3e4eb15f	0.20184849
27	0xbe854f20	-0.2603693
28	0x3ebaa563	0.36454305
29	0x3d157821	0.036491517
30	0xbe2f5828	-0.17123473
31	0xbe096092	-0.13415745
32	0xbf316ce4	-0.6930678
33	0x3dcb146e	0.09916006
34	0x3e262d17	0.16228138
35	0x3c7d5a6e	0.015463455
36	0xbe7e9f6d	-0.24865504
37	0xbf0c6bfb	-0.54852265
38	0xbe02a127	-0.12756787
39	0x3f1d992d	0.6156185
40	0x3f180f36	0.5939821
41	0xbea7cd09	-0.32773617
42	0x3f66d633	0.9017059
43	0xbe1bc497	-0.15211712
44	0xbf147782	-0.57994854
45	0x3e622994	0.22086173
46	0xbe522af9	-0.20524205
47	0xbf5031ec	-0.81326175
48	0xbea45a91	-0.32100347
49	0x3e203d3a	0.15648356
50	0x3f4657df	0.7747783
51	0x3c897af9	0.01678227
52	0xbecd6150	-0.40113306
53	0x3ef8bc9c	0.48581398
54	0xbde18d83	-0.11013319
55	0xbc211301	-0.009831191
56	0xbf338b87	-0.70134777
57	0xbe5c0a19	-0.21488227
58	0xbd545ae5	-0.051844496
59	0x3ea56c16	0.32309026
60	0x3e1f24e4	0.15541416
61	0xbf0affe2	-0.54296696
62	0x3ee99b70	0.45626402
63	0xbe4dcbb9	-0.20097245
64	0xbe7df8ce	-0.24801943
65	0x3e0a0af8	0.13480747
66	0xbe2f03a0	-0.17091227
67	0x3eaddaed	0.3395609
68	0x3f17c1f2	0.5928031
69	0x3e4485cf	0.19191669
70	0x3e73d7b4	0.23812753
71	0x3f23dfa4	0.64013124
72	0x3c212ec9	0.009837815
73	0x3ebf7691	0.37395146
74	0xbeb6cccb	-0.3570312
75	0x3e8073aa	0.25088245
76	0xbd1e5a37	-0.038660254
77	0x3f0a9582	0.5413438
78	0xbea8053f	-0.32816502
79	0xbcb3080b	-0.021854421
80	0xbee42338	-0.4455812
81	0x3e72a67b	0.2369632
82	0xbec4b932	-0.38422543
83	0x3f12da9b	0.57364815
84	0x3ec1e477	0.37869617
85	0xbf0b10db	-0.54322594
86	0x3e63df06	0.22253045
87	0xbdaeca67	-0.08534699
88	0x3e0f040d	0.13966389
89	0x3f9349aa	1.1506855
90	0x3b10b7b5	0.0022082154
91	0xbebf90d5	-0.37415186
92	0xbe0e71aa	-0.13910547
93	0x3e70d849	0.23520006
94	0xbe9d0983	-0.3067132
95	0x3e2a698f	0.1664183
96	0x3dee2da0	0.11629796
97	0xbeb470cf	-0.35242316
98	0xbee088ce	-0.43854374
99	0x3dd69624	0.10477856
100	0x3ed9938d	0.42495385
101	0x3f1cadae	0.61202514
102	0x3ec9b2ec	0.3939432
103	0x3e7cabf3	0.24674968
104	0xbe32f901	-0.174778
105	0x3f117e01	0.5683289
106	0xbd896e44	-0.067104846
107	0x3c88eac4	0.016713507
108	0x3e3178b4	0.17331201
109	0xbe80c925	-0.2515346
110	0xbed4f972	-0.41596562
111	0xbe1c6af8	-0.1527518
112	0x3d82bcf6	0.06383698
113	0xbeb758c6	-0.35809916
114	0x3ecbec76	0.39828843
115	0x3f1b37fb	0.60632294
116	0xbceb4619	-0.028719949
117	0xbdf1e63f	-0.11811494
118	0xbd3a39b8	-0.0454652
119	0x3df812ca	0.12112959
120	0xbf575707	-0.8411717
121	0x3df4574e	0.119307145
122	0xbe2ff2c3	-0.1718245
123	0xbdb6df42	-0.08929302
124	0xbf05c4f0	-0.5225363
125	0x3e5482d7	0.20753036
126	0xbf90f86b	-1.1325811
127	0x3ef3257b	0.47489533

running_mean f4 [128]
0	0x3dc66bdc	0.09688541
1	0xbe7bb051	-0.24578978
2	0x3f107cb8	0.56440306
3	0xbac6e190	-0.0015173424
4	0xbf44c080	-0.7685623
5	0x3c444cdb	0.011981214
6	0x3ef44ead	0.47716275
7	0x3e0c8421	0.13722278
8	0xbf2ea8bc	-0.6822622
9	0xbed600a6	-0.4179737
10	0x3e8f3580	0.27970505
11	0x3ed05a43	0.40693864
12	0x3f08dfd3	0.5346653
13	0x3fd853c8	1.6900568
14	0x3dedf700	0.11619377
15	0xbf6489d0	-0.89272785
16	0x3f358ed5	0.7092107
17	0x3f6e0507	0.9297642
18	0xbc951117	-0.018196626
19	0xbedde3eb	-0.4333795
20	0x3f98e964	1.1946225
21	0x3ec49cc4	0.38400853
22	0x3ebbe91d	0.3670129
23	0x3ff780b1	1.9336149
24	0x3f0fe20a	0.56204283
25	0x3ee7babf	0.45259663
26	0x3d4397b8	0.047752112
27	0x3f78e975	0.9723123
28	0x3fc07674	1.5036149
29	0x3fccee85	1.601029
30	0x3f0eba37	0.5575289
31	0x3fa7bba5	1.310414
32	0xbf4bcc80	-0.7960892
33	0x3f2cc0a0	0.6748142
34	0x3b177b8b	0.0023114409
35	0xbf8e2cc4	-1.1107411
36	0xbfb1b9e2	-1.3884852
37	0xbf694e28	-0.9113488
38	0xbdf48e6e	-0.11941229
39	0x3f0632d2	0.52421296
40	0xbc6d7577	-0.014493338
41	0xbef39ac2	-0.47579008
42	0xbf343536	-0.70393693
43	0xbe8c6870	-0.2742343
44	0xbf1cb50a	-0.61213744
45	0xbf0f89c7	-0.56069607
46	0x3f2f1650	0.6839342
47	0xbd64cc32	-0.0558588
48	0xbf4e1ba4	-0.80510926
49	0x3eaa02d4	0.33205283
50	0xbf252d40	-0.6452217
51	0x3ed7015b	0.41993222
52	0xbd57ffb4	-0.052734092
53	0x3f14057b	0.5782086
54	0x3ee73b14	0.4516226
55	0x3fa00187	1.2500466
56	0xbfa2da47	-1.2722863
57	0xbf96e433	-1.1788391
58	0x3f243a3d	0.64151365
59	0x3fb7bdee	1.4354837
60	0xbf0b95c4	-0.545254
61	0xbff8bd89	-1.9432842
62	0x3f0b8b1a	0.5450913
63	0xbed49a94	-0.41524184
64	0x3fae894f	1.3635653
65	0x3ff23a9e	1.8924139
66	0xbf21fefd	-0.63279706
67	0x3f14e2db	0.58158654
68	0xbf8577e1	-1.0427209
69	0x3ea78e5c	0.327258
70	0xbea4ac3c	-0.32162654
71	0x3f9bc5b6	1.2169712
72	0x3f52fa2d	0.8241299
73	0x3f935eee	1.1513345
74	0xbf866b3d	-1.0501477
75	0x3f36428a	0.7119528
76	0xbf8f97e6	-1.1218231
77	0x3fa6b6a7	1.3024491
78	0xbf8ca93c	-1.0989146
79	0x3f9d31e7	1.2280854
80	0x3f98ed30	1.1947384
81	0xbebad36e	-0.36489433
82	0xbf905a77	-1.1277608
83	0x3f5cc3a9	0.86236054
84	0x3e8cd78b	0.27508196
85	0x3e5c9a5b	0.21543257
86	0x3e571b11	0.21006419
87	0xc01481a1	-2.320412
88	0x3f6cad50	0.92451954
89	0x3f1db436	0.61603105
90	0x3e8cc4f6	0.2749402
91	0xbf1ade39	-0.60495335
92	0x3d6e5e0d	0.058195163
93	0xbf2e6a16	-0.68130624
94	0x3e9f6f81	0.31139758
95	0x3f4a39f2	0.7899467
96	0x3f75896b	0.9591281
97	0x3f913c10	1.1346455
98	0xbf5fbaaa	-0.873942
99	0x3f5114f1	0.8167258
100	0xbfb76164	-1.4326596
101	0x3f63a275	0.88919765
102	0x3f0f652a	0.5601374
103	0x3f8030e8	1.0014925
104	0x3eafe9cd	0.34358063
105	0xbf086f03	-0.5329439
106	0x3fa1abec	1.2630591
107	0x3ec863cf	0.39138648
108	0x3f01fd00	0.5077667
109	0xbfc60f8e	-1.5473497
110	0xbf035658	-0.51303625
111	0x3f57b4fd	0.8426054
112	0xbf8d790d	-1.1052567
113	0x3d6a72d2	0.057238407
114	0x3ec52938	0.3850801
115	0x3f7028da	0.93812335
116	0xbf9e6a35	-1.2376162
117	0x3f4cc4d2	0.79987824
118	0xbeb52dd8	-0.35386539
119	0x3ee1cf04	0.44103253
120	0xbf3c2262	-0.73489964
121	0xbdcf546b	-0.10123523
122	0xbf657a02	-0.89639294
123	0xbd50cfca	-0.050979413
124	0x3d718dee	0.058973245
125	0x3dc58d19	0.09646053
126	0xbe912f90	-0.283566
127	0xbf35207a	-0.7075268

running_var f4 [128]
0	0x421a5fe0	38.593628
1	0x42410146	48.251244
2	0x41f5738f	30.681425
3	0x42222b2c	40.54216
4	0x42435df6	48.84176
5	0x41e1ef57	28.241865
6	0x423b1ccf	46.778133
7	0x424cefe5	51.234272
8	0x421c62d6	39.09652
9	0x4271657c	60.349106
10	0x41bb00a8	23.37532
11	0x42116384	36.347183
12	0x423078c4	44.117935
13	0x422583e1	41.378788
14	0x42240b61	41.011112
15	0x42583f34	54.06172
16	0x4216b8a3	37.68031
17	0x41e1c28b	28.219992
18	0x42349855	45.14876
19	0x424c7d98	51.12265
20	0x4260ff20	56.249146
21	0x422f1e33	43.77949
22	0x424f56ab	51.834637
23	0x4223dcf3	40.96577
24	0x420bbb20	34.93274
25	0x4231824c	44.377243
26	0x42353494	45.301346
27	0x41f4ae73	30.58518
28	0x42212b2d	40.292164
29	0x425b6026	54.843895
30	0x42232ca2	40.793587
31	0x424be2a9	50.971348
32	0x41f1d5c2	30.229374
33	0x42752fc8	61.29666
34	0x42008cb0	32.13739
35	0x422a6eff	42.608395
36	0x41d98846	27.19154
37	0x4209119a	34.26719
38	0x42288305	42.12795
39	0x4205b780	33.4292
40	0x426a0243	58.50221
41	0x421b5e00	38.841797
42	0x424c42a9	51.065098
43	0x42052bcc	33.29277
44	0x4240b1a0	48.173462
45	0x425e8197	55.626553
46	0x41f37fd7	30.437422
47	0x42570e34	53.76387
48	0x426720ab	57.781902
49	0x41e89890	29.074493
50	0x421c422f	39.064632
51	0x4207ddd6	33.966637
52	0x4235b11c	45.42296
53	0x421e434c	39.56572
54	0x41e31e52	28.389805
55	0x4267fa34	57.99434
56	0x4232bf5f	44.686886
57	0x42621d2f	56.5285
58	0x41c61cb7	24.76402
59	0x4242005e	48.50036
60	0x420cea80	35.229004
61	0x42261ab7	41.52609
62	0x42127110	36.610413
63	0x421e4da2	39.575813
64	0x41e817ff	29.011717
65	0x4216f8e2	37.74305
66	0x42315f21	44.3429
67	0x420dd858	35.461273
68	0x41dde967	27.738966
69	0x421e431c	39.565536
70	0x4243692f	48.85272
71	0x421ea170	39.657654
72	0x424f6e60	51.857788
73	0x41d79684	26.948494
74	0x4222777f	40.616695
75	0x41c2e03e	24.359493
76	0x41f11bbc	30.138542
77	0x41cc659e	25.549618
78	0x4238e6bc	46.225327
79	0x41f6d68e	30.854763
80	0x4288af35	68.3422
81	0x41f83e85	31.030527
82	0x41b73a1c	22.903374
83	0x421364bb	36.84837
84	0x428cb78c	70.35849
85	0x420fa95c	35.91539
86	0x4226e82d	41.726734
87	0x41f69191	30.821077
88	0x422d62e3	43.34657
89	0x420838c6	34.055443
90	0x424b2e63	50.7953
91	0x422dbad1	43.432438
92	0x422b12c3	42.768322
93	0x4243b34c	48.925095
94	0x425d61e0	55.34558
95	0x425777a7	53.866848
96	0x41a56703	20.675299
97	0x41da549a	27.29131
98	0x423b64cf	46.848446
99	0x4222f3b6	40.738
100	0x420915e0	34.271362
101	0x420e8088	35.62552
102	0x421a1af8	38.526337
103	0x424d45f4	51.318314
104	0x4206aa00	33.666016
105	0x42232e64	40.795303
106	0x4253d3e3	52.95692
107	0x422d5671	43.334415
108	0x42284367	42.065823
109	0x41f711cd	30.883692
110	0x41cc03d1	25.501863
111	0x422ed3d2	43.706856
112	0x420ed8a7	35.711575
113	0x422350ce	40.82891
114	0x420ded80	35.481934
115	0x41dbfc40	27.498169
116	0x41cfa679	25.956285
117	0x42046a37	33.103725
118	0x424c932e	51.14373
119	0x4230f4db	44.239117
120	0x423213b8	44.519257
121	0x41d44ed0	26.538483
122	0x42038fde	32.890495
123	0x42559911	53.39948
124	0x41effc0e	29.998074
125	0x422f8c11	43.886784
126	0x41d6e351	26.860994
127	0x42062d53	33.544262

weight f4 [32, 128, 3, 3]
0	0x3ed42d36	0.41440743
1	0x3d9aa5c2	0.07551147
2	0xbe05872f	-0.1303985
3	0x3ca28178	0.019837126
4	0xbe29c538	-0.16579139
5	0xbe9faa01	-0.3118439
6	0xbd93abaa	-0.07210477
7	0x3e9f5f95	0.3112761
8	0xbe1aa222	-0.15100911
9	0x3e809ece	0.25121158
10	0xbe57c057	-0.21069466
11	0xbe497e69	-0.19677128
12	0x3e0871a4	0.133246
13	0x3ea5aeb6	0.32359856
14	0xbe4f9856	-0.20272955
15	0xbea06103	-0.31324014
16	0xbda4a1e6	-0.08038692
17	0xbf481c8c	-0.7816856
18	0x3d553f25	0.052062172
19	0xbe1e31d7	-0.154487
20	0xbf21fbdf	-0.6327495
21	0xbd7a061c	-0.061040983
22	0x3e2a0e6b	0.16607063
23	0xbdc73069	-0.097260304
24	0x3f533407	0.8250126
25	0xbddbac43	-0.10726216
26	0x3e92c653	0.28666934
27	0x3e63880b	0.22219865
28	0x3d950bab	0.07277616
29	0xbc541955	-0.012945493
30	0x3e40b0f3	0.18817501
31	0x3d425c13	0.04745109
32	0x3dbe9ef0	0.09307659
33	0x3de415db	0.11136981
34	0x3ede7839	0.43451098
35	0x3e682399	0.2266983
36	0xbe706e81	-0.23479654
37	0xbe023704	-0.127163
38	0x3e6f8427	0.23390256
39	0xbd90f56a	-0.07078059
40	0xbe2e7657	-0.1703733
41	0x3e22ffc2	0.15917876
42	0x3e306377	0.17225443
43	0x3d9237a4	0.07139519
44	0x3e55e567	0.20888291
45	0x3dde228c	0.10846433
46	0xbde881d5	-0.113528885
47	0x3e1756ba	0.14779177
48	0x3f0135af	0.5047254
49	0xbe45ae49	-0.19304766
50	0x3c5e81d5	0.013580759
51	0x3e6c4111	0.23071696
52	0xbe82c8fb	-0.2554396
53	0x3e7a2ee0	0.24431944
54	0xbeab1f46	-0.33422297
55	0x3eaaa2fe	0.33327478
56	0xbf3aec4b	-0.73016804
57	0xbea94e62	-0.33067614
58	0xbdcf05b1	-0.101085074
59	0xbe7e6684	-0.24843794
60	0xbef02b83	-0.46908197
61	0xbf03f3c2	-0.5154382
62	0xbe79b006	-0.24383554
63	0xbd107546	-0.03526809
64	0xbe2774ca	-0.16353145
65	0x3e4c554a	0.1995441
66	0x3e84b6a4	0.25920594
67	0xbe4d539a	-0.20051423
68	0xbe1dffe0	-0.1542964
69	0x3f1eda50	0.6205187
70	0xbd3a554a	-0.045491494
71	0x3e32e95a	0.17471829
72	0xbe4009a4	-0.18753678
73	0xbd0f31f7	-0.03495976
74	0x3ecc3b1d	0.3988885
75	0x3e6c9e18	0.23107183
76	0xbe16b8bc	-0.14718908
77	0x3e50f7b6	0.20406994
78	0x3da421cf	0.08014261
79	0x3e7f413b	0.24927227
80	0xbcd1c76b	-0.025607785
81	0x3d4823c6	0.04886224
82	0x3e604f84	0.21905333
83	0xbe28b0fc	-0.16473764
84	0x3da0e232	0.07855643
85	0x3e6bb3e0	0.23017836
86	0xbeba5214	-0.36390746
87	0xbe5d3414	-0.21601897
88	0x3ddc22d1	0.10748828
89	0x3f527e3a	0.82223856
90	0x3ea6f944	0.3261205
91	0x3d8ea94e	0.06965886
92	0xbe69257d	-0.22768207
93	0x3c00927c	0.007847425
94	0xbe44e4c9	-0.192279
95	0x3e6bc462	0.23024133
96	0x3ecc3e94	0.39891493
97	0x3ed31096	0.41223592
98	0x3d6dfc9c	0.058102235
99	0xbe16d306	-0.14728937
100	0xbea2e96b	-0.3181871
101	0x3dcf7e62	0.101315275
102	0x3e1e648c	0.15468043
103	0xbca488ef	-0.020084826
104	0xbebdb6ab	-0.37053427
105	0xbe2a717e	-0.16644856
106	0xbd86d386	-0.06583314
107	0x3e88e207	0.26734945
108	0x3ea29c09	0.3175967
109	0xbec167f1	-0.37774613
110	0x3f06ab9b	0.526056
111	0x3ea49050	0.32141352
112	0xbdd0e514	-0.10199943
113	0xbe8b1bb9	-0.27169588
114	0xbf21e5f2	-0.63241494
115	0xbde5ff7a	-0.11230369
116	0x3e791e98	0.24328077
117	0xbdced47e	-0.100991234
118	0x3d13c957	0.036080685
119	0x3ee26149	0.44214848
120	0xbe707664	-0.23482662
121	0xbece8e86	-0.40343112
122	0x3e0a956e	0.13533565
123	0xbe8162fd	-0.25270835
124	0xbe537b3b	-0.20652477
125	0xbe2eaffd	-0.17059322
126	0x3d371656	0.044699036
127	0xbd5d720d	-0.054063845
128	0xbe81ccc8	-0.25351548
129	0xbd073312	-0.03300769
130	0x3dc60b6b	0.096701466
131	0xbe0c4f1b	-0.13702051
132	0xbec3ad59	-0.3821819
133	0x3d669a5d	0.056299556
134	0xbd6134e1	-0.05498207
135	0xbe7b8a10	-0.24564385
136	0x3eb7cb62	0.35897356
137	0xbc924d87	-0.017859234
138	0xbd5f293c	-0.054482684
139	0xbe301c60	-0.17198324
140	0x3eba7d49	0.3642371
141	0xbe809132	-0.25110775
142	0x3c6e27f7	0.014535896
143	0x3ed6a45d	0.41922274
144	0xbee1f678	-0.44133353
145	0x3c7705c6	0.01507706
146	0xbb5f1503	-0.0034039624
147	0x3e2e167d	0.17000766
148	0x3f25a848	0.647099
149	0xbe727be2	-0.2368007
150	0xbeac6775	-0.3367268
151	0x3e8795f8	0.26481605
152	0x3d4024ca	0.046910085
153	0x3b5ec669	0.0033992773
154	0xbe80caa8	-0.25154614
155	0xbd76604c	-0.06015043
156	0x3e248d40	0.16069508
157	0xbc842565	-0.016131112
158	0xbeadcdef	-0.33946177
159	0xbbf207c5	-0.00738618
160	0xbf0667a4	-0.52501893
161	0xbe010054	-0.12597781
162	0xbc98ef4e	-0.018668797
163	0x3ecd76cc	0.40129697
164	0xbe4392c3	-0.19098954
165	0x3e695d46	0.22789487
166	0x3ed2d2ec	0.41176546
167	0x3e9ca676	0.3059575
168	0x3f5452d4	0.82938886
169	0x3f15f5a6	0.58577955
170	0xbef9a00a	-0.48754913
171	0x3ea0642b	0.31326422
172	0x3d64f78c	0.05590014
173	0x3ddbfb88	0.10741335
174	0x3e543509	0.20723356
175	0xbe72071c	-0.23635525
176	0xbd24d755	-0.04024442
177	0x3e9a442e	0.30130142
178	0x3f0709ab	0.5274913
179	0x3e6ef7df	0.23336743
180	0x3e509788	0.20370305
181	0x3ebd6bf6	0.3699643
182	0xbdece2b7	-0.1156668
183	0xbee5983f	-0.44842717
184	0xbd59941d	-0.053119767
185	0x3f0f8661	0.5606442
186	0xbce1a13d	-0.027542705
187	0xbe5706c7	-0.20998679
188	0xbc30ee77	-0.010799042
189	0x3c4b535b	0.01241001
190	0xbdbb8cab	-0.0915769
191	0xbb4a3a12	-0.0030857367
192	0x3d9c9e82	0.076474205
193	0xbee52315	-0.44753328
194	0x3edc62c4	0.43044102
195	0x3d409ebb	0.047026377
196	0x3e6275f0	0.22115302
197	0xbf0b7144	-0.54469705
198	0xbe9fc419	-0.31204298
199	0x3e9c8385	0.3056909
200	0xbe7b9d60	-0.24571753
201	0x3ec51ebe	0.38500017
202	0xbc951e47	-0.018202914
203	0xbdb9bc1e	-0.09069084
204	0xbedc518c	-0.43030965
205	0x3eb130aa	0.3460744
206	0x3ec01fb1	0.3752418
207	0x3e356a73	0.17716388
208	0xbe165b2a	-0.14683214
209	0x3e1ce52d	0.15321799
210	0xbe0c81b7	-0.13721357
211	0x3e1d7db6	0.15379986
212	0xbf0ed2a2	-0.5579015
213	0xbee4899c	-0.44636238
214	0xbd3c6cf2	-0.046002336
215	0xbe33c476	-0.17555413
216	0xbe18d9d9	-0.14926852
217	0xbb0ca32d	-0.0021459565
218	0xbebf53c2	-0.3736859
219	0xbecdfd0d	-0.40232125
220	0xbe98bc6d	-0.29831257
221	0x3e5ce354	0.21571094
222	0xbe8559e0	-0.26045132
223	0xbea72e46	-0.3265249
224	0x3e4adbaf	0.19810365
225	0xbd4a96ea	-0.04946033
226	0x3ed414ae	0.41422027
227	0xbe3952c4	-0.18097979
228	0xbef00f5f	-0.46886727
229	0x3e4b2aa9	0.19840492
230	0x3e55916c	0.20856255
231	0x3e8fff91	0.2812467
232	0x3e3f8595	0.18703301
233	0x3c6b5fb1	0.014366076
234	0xbe884be1	-0.2662039
235	0xbebf6fcf	-0.3738999
236	0x3eb8391c	0.3598107
237	0xbd8153bb	-0.063147984
238	0xbeb404e3	-0.35159978
239	0xbe236360	-0.15955877
240	0x3ea641d9	0.32472113
241	0xbd89a721	-0.067213304
242	0x3e3729f2	0.17887095
243	0xbc45f1fe	-0.012081621
244	0x3d3c9288	0.04603818
245	0xbe9263dc	-0.28591812
246	0xbdcc872c	-0.099867195
247	0xbe18ba87	-0.14914905
248	0x3e0f889c	0.14016956
249	0x3db58f38	0.088652074
250	0x3dc0b965	0.09410361
251	0xbe2b9c94	-0.16758949
252	0x3d6a7402	0.05723954
253	0xbe716e41	-0.23577215
254	0xbdea30cc	-0.114350885
255	0xbe495dbf	-0.19664668

weight f4 [32]
0	0x3fad30ae	1.3530481
1	0x3fb39a2a	1.4031422
2	0x3f95177b	1.1647791
3	0x3fde61a1	1.7373544
4	0x3fad894b	1.3557523
5	0x3fa6528d	1.2993942
6	0x3f4d51d9	0.80203015
7	0x3faadb3b	1.3348154
8	0x3fab1482	1.3365633
9	0x3fbb4edd	1.4633442
10	0x3fef9c7f	1.8719634
11	0x3fa13ec8	1.2597284
12	0x3fb63f8f	1.4238147
13	0x3fe3ba53	1.7791237
14	0x3f9c367e	1.220413
15	0x3fe18812	1.761965
16	0x3f97d2cd	1.1861206
17	0x3fc3b7d1	1.5290471
18	0x3fb16db0	1.3861599
19	0x3fae22c8	1.3604364
20	0x3f96c24f	1.1778048
21	0x3f9c78fc	1.2224422
22	0x3fc46011	1.5341817
23	0x3fa2832a	1.2696278
24	0x3fa4f28a	1.2886517
25	0x3fa7172f	1.305395
26	0x3f83641e	1.0264928
27	0x3fa88761	1.3166314
28	0x3fc5ed6b	1.5463079
29	0x3f90405a	1.1269639
30	0x3f4db997	0.8036131
31	0x3fabb153	1.341349

bias f4 [32]
0	0xbf89de3d	-1.0770947
1	0xbf0ee624	-0.55819917
2	0xbf04b47e	-0.5183791
3	0xbc6a3abb	-0.014296229
4	0xbef2f9ff	-0.47456357
5	0xbf2bd86a	-0.67127097
6	0xbf7de572	-0.9917823
7	0xbf6425d4	-0.8912022
8	0xbf0e966a	-0.55698264
9	0xbede87a2	-0.43462855
10	0xbd444f54	-0.047927216
11	0xbf8cd17e	-1.1001432
12	0xbf5f6829	-0.8726831
13	0xbf438421	-0.7637349
14	0xbf5cfffd	-0.8632811
15	0xbebf1e6e	-0.37327904
16	0xbf3bce6f	-0.7336187
17	0xbf211943	-0.6292917
18	0xbf827e2d	-1.0194756
19	0xbf842b89	-1.0325786
20	0xbf06d9c6	-0.52676046
21	0xbef0c11b	-0.47022328
22	0xbf8c7f44	-1.0976338
23	0xbf520e0f	-0.820527
24	0xbf75e868	-0.9605775
25	0xbf1adef5	-0.60496455
26	0xbed72b70	-0.42025328
27	0xbeb1b401	-0.34707645
28	0xbef05cab	-0.469457
29	0xbf5f816d	-0.87306863
30	0xbf0162d9	-0.50541455
31	0xbf55e06c	-0.83545566

running_mean f4 [32]
0	0x3ea5c802	0.32379156
1	0xbf886052	-1.0654395
2	0xc08199c3	-4.0500197
3	0x3f2f08c4	0.6837275
4	0x3e7fab23	0.24967627
5	0x3e93c3ce	0.28860325
6	0x3e46e9d5	0.19425137
7	0x3fbfd747	1.4987572
8	0xbfe90520	-1.8204689
9	0xbf660974	-0.89858174
10	0x3f9151e8	1.1353121
11	0xbd6fe82e	-0.058571033
12	0xbf5f9b20	-0.87346077
13	0x3fd65536	1.6744754
14	0x40486f66	3.1317992
15	0x3f55c787	0.8350758
16	0xbfa03c5d	-1.2518421
17	0xc0919f9c	-4.5507336
18	0xbfd3360b	-1.6500868
19	0x3da9bdbb	0.08288141
20	0xc0659474	-3.5871859
21	0x3f11c279	0.56937367
22	0x3d919a05	0.07109455
23	0xbe140e67	-0.14458619
24	0xbe9ff9bf	-0.3124523
25	0xbfb3e97d	-1.405563
26	0xbf1983ab	-0.59966534
27	0xc017eb32	-2.3737302
28	0xbfb4b6a6	-1.411824
29	0xc00d2035	-2.2050908
30	0xbdf84b1e	-0.121237025
31	0xbfb80f56	-1.437968

running_var f4 [32]
0	0x42c003b0	96.0072
1	0x43498298	201.51013
2	0x42f4f844	122.48489
3	0x42f9497a	124.64351
4	0x42f449f2	122.144424
5	0x42ebbb27	117.86553
6	0x42e1698a	112.70613
7	0x431f47fc	159.28119
8	0x42d931ef	108.59753
9	0x43343ccf	180.23753
10	0x430165ad	129.39717
11	0x42f97c47	124.74273
12	0x430550af	133.31517
13	0x43141f58	148.12244
14	0x42b564dc	90.69699
15	0x430c1abc	140.10443
16	0x430a0ac3	138.04204
17	0x433d253d	189.14546
18	0x431b6a34	155.41486
19	0x42cec653	103.38735
20	0x4315294d	149.16133
21	0x42ff9fdc	127.812225
22	0x42ea1a91	117.05189
23	0x42ca9cf9	101.30659
24	0x42b9f4c9	92.978096
25	0x42f03115	120.09586
26	0x42f12dcd	120.589455
27	0x430e435a	142.26309
28	0x432d012c	173.00458
29	0x4391e02c	291.75134
30	0x4307d925	135.84822
31	0x4325d639	165.8368

weight f4 [16, 32]
0	0x3dbfa1ba	0.09357019
1	0x3eb851a9	0.35999802
2	0x3e91f24d	0.28505173
3	0x3e3ce61a	0.18447152
4	0xbe66f504	-0.22554404
5	0x3ea9b14d	0.33143082
6	0xbf15a964	-0.58461595
7	0xbedd082e	-0.43170303
8	0x3ee85d79	0.45383814
9	0x3ed943a0	0.42434406
10	0x3e8a7edb	0.27049908
11	0xbed17a87	-0.40913793
12	0xbea1b799	-0.31585386
13	0x3e2636b9	0.16231813
14	0xbeb2dee8	-0.3493569
15	0x3ea8b51a	0.3295067
16	0xbec59a2f	-0.38594195
17	0x3ec8a84a	0.39190894
18	0xbe83e550	-0.2576089
19	0xbeb116ea	-0.34587795
20	0x3e2a140b	0.16609208
21	0xbebedd38	-0.37278152
22	0xbe9a8c17	-0.30185005
23	0xbe8cd292	-0.27504402
24	0xbe74d1ac	-0.23908108
25	0x3eb1a653	0.34697208
26	0xbe381b3a	-0.17979136
27	0x3e906a7d	0.28206244
28	0x3eb1515a	0.3463238
29	0x3e6244d4	0.22096568
30	0xbe7886af	-0.24270128
31	0x3ea71ae2	0.32637697
32	0xbe5b4222	-0.21411946
33	0xbdebf0ce	-0.11520539
34	0x3dc63707	0.096784644
35	0x3cac9e40	0.021071553
36	0xbe4a2e55	-0.19744237
37	0x3da98ec0	0.082791805
38	0x3cd8a991	0.026448043
39	0xbe3f0cb7	-0.18657194
40	0xbbc11f64	-0.0058936346
41	0xbe08d133	-0.13361053
42	0xbc7422e9	-0.014900901
43	0x3d8a8a5b	0.067646705
44	0x3d900875	0.07032863
45	0x3cabc472	0.020967696
46	0xbe0c4378	-0.13697612
47	0xbd9e94b8	-0.077432096
48	0xbe48c091	-0.19604708
49	0x3dcedbf1	0.10100544
50	0xbdab7323	-0.0837157
51	0xbca615ef	-0.02027413
52	0xbe1a1b06	-0.15049371
53	0xbd61a505	-0.055089016
54	0x3c9f99b5	0.019482473
55	0x3cb6e776	0.022327166
56	0xbe2b603e	-0.16735932
57	0xbd6165e1	-0.0550288
58	0xbdb5f135	-0.08883897
59	0xbdb4eb5f	-0.08833956
60	0xbe28f5e9	-0.16500057
61	0x3ce777bd	0.028255338
62	0xbe19e2f7	-0.15027986
63	0x3d5b57b6	0.053550445
64	0xbe1e7a70	-0.15476394
65	0xbe31baec	-0.17356461
66	0xbe18d283	-0.14924054
67	0xbdbe9f57	-0.093077354
68	0xbd975f3d	-0.07391212
69	0x3e087a2f	0.1332786
70	0xbd7056ca	-0.05867652
71	0xbd96dc6c	-0.07366261
72	0xbce3321c	-0.027733855
73	0xbd83815d	-0.064211585
74	0xbc8f08f7	-0.01746033
75	0x3d263ccd	0.040585328
76	0xbda816e2	-0.082074896
77	0x3cd92266	0.02650566
78	0x3d254c96	0.04035624
79	0x3cd37e22	0.02581698
80	0x3d6a8b5b	0.057261806
81	0x3de2993a	0.11064382
82	0xbbc5f5f8	-0.0060412847
83	0xbd007996	-0.031365953
84	0x3d32165f	0.043478366
85	0x3dd84f9c	0.10562059
86	0xbdf468e1	-0.119340666
87	0xbd6f3c7f	-0.058407303
88	0x3e1811d4	0.14850551
89	0xbd7da4c7	-0.061924722
90	0xbda80bc4	-0.08205369
91	0xbdf542a6	-0.11975603
92	0xbe0b9c95	-0.1363395
93	0xbd50cd73	-0.05097718
94	0xbe41b047	-0.189149
95	0x3deab26c	0.114598125
96	0x3e57310c	0.21014804
97	0x3ea7a2f9	0.32741526
98	0x3e04fed7	0.12987839
99	0x3ee69953	0.45038852
100	0xbedc4bcc	-0.43026578
101	0x3ea52e30	0.322618
102	0xbf227e3c	-0.6347387
103	0x3d39cd38	0.045361727
104	0x3d761244	0.060076013
105	0x3e5f13b5	0.21784861
106	0x3ed40c08	0.4141543
107	0xbe76ae5f	-0.24089955
108	0xbe9e0a18	-0.30867076
109	0x3f0e35bf	0.5555076
110	0xbe57f677	-0.21090113
111	0x3ee298e6	0.44257277
112	0xbe9b24ae	-0.30301422
113	0x3d3ec173	0.046571206
114	0xbea086d9	-0.3135288
115	0xbe9d1914	-0.30683196
116	0xbcba407f	-0.022735832
117	0xbe3a54e3	-0.18196444
118	0xbe86b971	-0.26313356
119	0xbe8e0f1a	-0.27745897
120	0xbea8394a	-0.32856208
121	0x3e7ff0b2	0.24994162
122	0xbe3e7284	-0.18598372
123	0x3e1e66d1	0.15468909
124	0x3dd5fb72	0.1044835
125	0x3dae8db5	0.08523122
126	0xbea82c3d	-0.3284625
127	0x3e231b42	0.15928367
128	0xbe7bf13d	-0.24603744
129	0xbbfeb2a2	-0.0077727595
130	0xbe0d14df	-0.13777493
131	0xbf020e93	-0.5080349
132	0x3df3de2c	0.1190761
133	0xbebd678b	-0.3699306
134	0x3ef32843	0.47491655
135	0xbf0197f7	-0.50622505
136	0x3da7f23a	0.08200498
137	0x3ba6397f	0.005072772
138	0xbeb0b059	-0.34509543
139	0x3e2a6255	0.16639073
140	0x3cff065a	0.031130958
141	0xbeef55e9	-0.46745232
142	0x3da594c6	0.08085017
143	0xbee5e578	-0.44901633
144	0x3e9127f8	0.28350806
145	0x3e18091a	0.14847222
146	0x3e7e130f	0.24811958
147	0x3e955c4e	0.29171985
148	0x3d48dffa	0.049041726
149	0x3d7dd2b9	0.06196854
150	0x3e6906db	0.22756521
151	0x3e22fd2e	0.15916893
152	0x3e778547	0.24171935
153	0xbd97245e	-0.07379983
154	0x3ee3fae7	0.4452736
155	0x3e3e8d7c	0.1860866
156	0x3e0319f7	0.12802874
157	0x3e52f6e1	0.2060199
158	0x3e8965cb	0.26835474
159	0x3e203373	0.15644626
160	0xbef0070f	-0.46880385
161	0x3d9341a2	0.07190253
162	0x3e1df059	0.15423717
163	0x3de62f3e	0.112394795
164	0x3e3f5e46	0.18688306
165	0x3d3174e8	0.04332438
166	0x3cd9e947	0.026600493
167	0x3e5e4325	0.21705301
168	0xbea229be	-0.31672472
169	0xbe769810	-0.24081445
170	0x3e2ec4db	0.17067282
171	0x3dc55dc4	0.09637025
172	0xbdb34f81	-0.087553985
173	0x3ec831d5	0.3910052
174	0x3dafcd93	0.08584132
175	0x3e80febe	0.25194353
176	0x3e5a77ea	0.21334806
177	0x3bdbaa80	0.006703675
178	0x3d689a1e	0.056787603
179	0xbceef443	-0.029169207
180	0xbe93869a	-0.2881363
181	0x3e9c9e01	0.30589297
182	0x3c6e24f2	0.014535176
183	0x3e0658ce	0.13119814
184	0xbd105c71	-0.03524441
185	0xbe77e528	-0.2420851
186	0x3e866c22	0.26254374
187	0xbe858ee7	-0.26085588
188	0xbe856399	-0.2605255
189	0xbf04df88	-0.5190358
190	0x3f02d435	0.5110505
191	0xbe9438e7	-0.28949663
192	0xbba0cd87	-0.0049073133
193	0xbe4ef0e3	-0.20209078
194	0xbd0de642	-0.03464342
195	0xbdbaf7f1	-0.09129322
196	0xbe1d6c37	-0.15373312
197	0x3c724590	0.014787093
198	0xbe376f5f	-0.17913578
199	0xbd48e0b2	-0.04904241
200	0xbc698df1	-0.014255033
201	0xbc58359b	-0.013196374
202	0x3e01e389	0.12684454
203	0x3ca65e5f	0.020308672
204	0x3cff887b	0.031193009
205	0xbcf5fde9	-0.0300283
206	0x3dc428d7	0.09578102
207	0x3d70e4e7	0.05881205
208	0x3e00c852	0.12576416
209	0xbdd5b2e8	-0.10434514
210	0xbe476b5e	-0.19474551
211	0x3c4b9578	0.012425773
212	0x3ce91378	0.028451666
213	0xbdb46f38	-0.08810276
214	0xbd6ccdb4	-0.05781336
215	0x3cddc94d	0.027073527
216	0xbe455980	-0.19272423
217	0xbd07e151	-0.033173863
218	0xbe49eb51	-0.19718672
219	0x3b91403d	0.0044327066
220	0x3c15e038	0.009147696
221	0xbdc31fad	-0.09527526
222	0x3dbdd6a1	0.09269453
223	0xbe218ae4	-0.15775639
224	0x3d59511f	0.05305588
225	0xbe149923	-0.14511542
226	0xbea3ec78	-0.3201635
227	0x3f06fb02	0.5272676
228	0xbe46225c	-0.19349045
229	0x3e2e7558	0.1703695
230	0xbe5a5e22	-0.21324971
231	0x3ed79347	0.4210455
232	0xbe125561	-0.14290382
233	0xbd71c866	-0.059029005
234	0x3ef63483	0.48086938
235	0xbd4e7a59	-0.05040965
236	0xbd891713	-0.06693854
237	0x3eaaa297	0.3332717
238	0x3e0c2ac8	0.13688195
239	0x3f001315	0.50029117
240	0x3c66542d	0.014058155
241	0xbe881d3d	-0.26584807
242	0xbe570fa4	-0.2100206
243	0xbdb34032	-0.08752479
244	0xbeb0c917	-0.3452842
245	0x3d8fc95c	0.07020828
246	0xbe1b9f7d	-0.15197559
247	0xbdffc501	-0.124887474
248	0xbdb87660	-0.09006953
249	0x3d55c0c4	0.05218579
250	0xbd937187	-0.07199388
251	0xbe2ce899	-0.16885604
252	0xbe14311c	-0.14471859
253	0xbf07e86c	-0.5308902
254	0x3df10186	0.11767869
255	0xbe2e4446	-0.17018232

bias f4 [16]
0	0xbddff7aa	-0.1093591
1	0xbdbbc1da	-0.091678336
2	0xbd0da972	-0.034585424
3	0x3e26f46e	0.1630418
4	0xbd2c1e77	-0.04202124
5	0x3eaf00f2	0.3418041
6	0xbda0d133	-0.078524016
7	0x3e79b037	0.24383627
8	0xbe148bf6	-0.14506516
9	0xbc118c78	-0.008883588
10	0xbdc5e11d	-0.096620776
11	0x3dedb013	0.11605849
12	0x3e962c27	0.2933056
13	0x3e0cafc1	0.1373892
14	0x3dd88fea	0.105743244
15	0x3d045505	0.032307643

weight f4 [1, 16]
0	0xbef777b9	-0.4833353
1	0x3da19abd	0.07890842
2	0xbe08af3d	-0.13348098
3	0xbf066605	-0.5249942
4	0x3ea87654	0.32902777
5	0x3e398434	0.18116838
6	0xbdabaac4	-0.0838218
7	0x3eb9caa3	0.36287412
8	0xbf87f6b1	-1.0622159
9	0x3e8c1469	0.27359322
10	0x3c631ee2	0.0138623435
11	0x3da164c4	0.07880548
12	0x3ef04b2d	0.46932355
13	0x3df49720	0.11942887
14	0x3ce8ecd8	0.028433248
15	0xbc1955e0	-0.009358853
