m6Aiso/module/semi_model_7mer.times_over.epoch_0.pt (torch, 314499 bytes, 19 tensors)

weight f4 [2, 4, 5]
0.22247808 0.28041026 -0.15935782 0.037625168 0.23053932 0.1905767 -0.34484062 -0.20257677
-0.058034893 0.12075095 0.010998021 -0.21787183 -0.08752294 0.17503482 0.09233264 -0.0407722
0.29450214 0.43766776 -0.16912623 -0.032015268 -0.12534103 0.15806079 0.012910689 0.11401541
0.07599526 0.03894337 0.1861682 0.13744932 0.077073716 -0.04549344 -0.02095748 -0.06284484
0.059284452 -0.24491347 0.11126847 -0.008570681 0.12688565 -0.4924868 0.11135403 0.022427611
00000000: 4bd1 633e ef91 8f3e b22e 23be d91c 1a3d
00000010: 8012 6c3e 8a26 433e f38e b0be 4970 4fbe
00000020: ffb5 6dbd 464c f73d 0b31 343c cb19 5fbe
00000030: 3a3f b3bd 543c 333e e518 bd3d c000 27bd
00000040: fcc8 963e fd15 e03e 6d2f 2dbe 7122 03bd
00000050: 6659 00be b0da 213e 5b87 533c e980 e93d
00000060: 67a3 9b3d 1583 1f3d e0a2 3e3e 84bf 0c3e
00000070: d3d8 9d3d 5457 3abd 05af abbc ccb4 80bd
00000080: 41d4 723d 99ca 7abe b9e0 e33d 0b6c 0cbc
00000090: 50ee 013e 3b27 fcbe 950d e43d 1cba b73c

weight f4 [32, 1, 3, 3]
-0.012913172 -0.22522411 0.059151057 -0.4518966 0.42814198 -0.3904912 0.19495268 0.18568657
-0.09368554 0.13575476 -0.2552727 -0.038237616 -0.24029572 -0.09096058 0.16224317 -0.26853138
0.10843982 0.2388689 -0.07603651 -0.2967092 -0.1250757 -0.08506937 -0.49297354 0.17109457
-0.17787373 -0.16028808 0.025439592 0.1390987 0.36449668 -0.12552495 -0.02629028 0.0047098487
-0.028373968 0.16440853 -0.40796468 -0.070574634 -0.25614932 -0.02939975 -0.12334259 -0.02060262
-0.11089031 0.08628198 0.4346711 -0.24806124 0.2247312 -0.27379948 -0.15039316 -0.02807
0.11808146 -0.3312093 -0.13519555 -0.30145967 -0.1742821 -0.21811812 -0.12154978 0.07999376
0.10457415 0.21638142 -0.39633676 0.35153124 0.2177077 0.18150792 -0.36212832 0.10823011
0.30596092 -0.039836563 0.18221787 0.43313283 0.014062256 -0.12511283 0.16152582 0.19597267
-0.23921119 -0.070245616 0.10425214 -0.21183957 0.1494419 -0.3037404 -0.023859717 0.052044705
0.40636638 0.18633172 0.19699085 -0.33578566 -0.16414331 0.088989794 -0.15006569 -0.17602369
-0.19010283 0.11009693 0.08675442 -0.05160653 -0.20988312 -0.0054819603 -0.4244174 -0.13593063
-0.33133456 -0.13509543 0.0320016 0.205956 -0.4540964 0.16023317 -0.011694658 -0.2097985
-0.15373483 0.17069575 -0.22124982 -0.10901646 0.22168817 -0.07847872 0.3173942 0.24762632
-0.052034754 -0.37712437 -0.05892863 0.3974337 -0.36103773 0.13086465 0.39014703 -0.15864466
0.48954415 0.48372966 -0.010694929 0.21419269 0.01593928 0.31222123 -0.3824621 0.07369852
-0.50040805 -0.23127794 -0.3354994 0.21327855 -0.01159029 -0.04599838 -0.15054415 0.100453734
-0.02672097 -0.31575912 -0.14903484 -0.34099844 -0.28065416 -0.06104946 -0.3588186 -0.08247765
-0.05982394 -0.03763176 0.21103235 0.054364845 -0.022670807 0.22137547 0.1676229 0.30129156
0.08221116 -0.168809 0.17738935 0.2219578 0.13473755 0.19500461 0.37180308 -0.17127183
0.50536406 -0.1509706 -0.29841122 0.02075906 -0.2876112 -0.27986765 -0.19255461 -0.3759578
-0.10391469 -0.0026915306 0.19672641 -0.2619792 -0.124553256 -0.10113498 -0.25564313 -0.23754078
-0.34192356 0.044473764 -0.2702805 -0.2319613 -0.2232648 -0.00088694174 -0.28511214 -0.25202218
-0.11244072 -0.03804254 -0.079501085 0.39206836 -0.28324974 -0.36497 0.29237676 -0.05821884
-0.08044209 -0.21658437 -0.4203479 0.013906605 0.17976871 0.1226716 0.14575595 -0.04357273
0.054062366 0.047940575 -0.3403759 0.39062798 0.28122303 -0.18283735 -0.35588464 0.13830031
-0.3829417 0.06897112 -0.09911499 -0.29192883 0.01739411 -0.04289729 -0.15202302 -0.12621634
0.3313964 0.05990181 0.022067126 0.38308486 0.00820374 0.18065068 -0.22405255 0.45598167
0.030060992 0.030651784 -0.004513109 -0.038358115 -0.24644384 0.4011959 -0.09633265 -0.20828839
-0.13730823 -0.40553054 -0.17541496 -0.02013993 -0.17929123 0.17108217 -0.30628613 0.12818727
0.46652997 -0.020328632 0.09758493 -0.21623388 -0.05418697 0.10589401 -0.056503955 0.117363796
-0.30796576 0.24075077 -0.20579289 0.5144852 -0.012619583 0.018919371 0.13075325 0.2590278
00000000: c591 53bc 26a1 66be 6148 723d fe5e e7be
00000010: 6d35 db3e 76ee c7be ada1 473e 9f24 3e3e
00000020: 34de bfbd 4c03 0b3e 1ab3 82be 0c9f 1cbd
00000030: 1510 76be 8a49 babd 1323 263e f27c 89be
00000040: b215 de3d 0d9a 743e 08b9 9bbd 45ea 97be
00000050: d813 00be da38 aebd 0767 fcbe 6a33 2f3e
00000060: 8824 36be 8f22 24be b166 d03c e46f 0e3e
00000070: 4f9f ba3e 9d89 00be b75e d7bc 1355 9a3b
00000080: 8670 e8bc b65a 283e bfe0 d0be 6f89 90bd
00000090: 0126 83be bfd7 f0bc 0a9b fcbd d3c6 a8bc
000000a0: 751a e3bd 9bb4 b03d 368d de3e c403 7ebe
000000b0: f01f 663e 722f 8cbe aa00 1abe 0ef3 e5bc
000000c0: b1d4 f13d 4494 a9be b470 0abe ec58 9abe
000000d0: 0277 32be 5b5a 5fbe 17ef f8bd c5d3 a33d
000000e0: f92a d63d 1793 5d3e a7ec cabe e7fb b33e
000000f0: c4ee 5e3e 36dd 393e e268 b9be bfa7 dd3d
00000100: e9a6 9c3e aa2b 23bd 5297 3a3e 96c3 dd3e
00000110: 6065 663c 941d 00be 0667 253e 0fad 483e
00000120: c7f3 74be efdc 8fbd 2582 d53d 79ec 58be
00000130: 4c07 193e dd83 9bbe 7475 c3bc d42c 553d
00000140: 410f d03e becd 3e3e f8b7 493e 19ec abbe
00000150: 2f15 28be 4840 b63d d2aa 19be 8e3f 34be
00000160: 51aa 42be 807a e13d 4dac b13d 5e61 53bd
00000170: 9aeb 56be 04a2 b3bb 3d4d d9be 6631 0bbe
00000180: afa4 a9be 7556 0abe 1c14 033d 21e6 523e
00000190: 537f e8be 2a14 243e f39a 3fbc 6bd5 56be
000001a0: aa6c 1dbe deca 2e3e 508f 62be 0644 dfbd
000001b0: 3902 633e 73b9 a0bd 7e81 a23e c191 7d3e
000001c0: 6522 55bd 7216 c1be 265f 71bd 6e7c cb3e
000001d0: f0d9 b8be 6201 063e 5ac1 c73e bf73 22be
000001e0: 88a5 fa3e 6aab f73e c939 2fbc 5455 5b3e
000001f0: 1893 823c 76db 9f3e 13d2 c3be 40ef 963d
00000200: be1a 00bf 20d4 6cbe 94c6 abbe b165 5a3e
00000210: 33e5 3dbc cc68 3cbd 3f28 1abe b0ba cd3d
00000220: f0e5 dabc 2eab a1be 979c 18be 5997 aebe
00000230: e7b1 8fbe 000f 7abd 12b7 b7be 0bea a8bd
00000240: f309 75bd c323 1abd dd18 583e acad 5e3d
00000250: 21b8 b9bc 40b0 623e 56a5 2b3e e342 9a3e
00000260: 535e a83d 44dc 2cbe 8ea5 353e e848 633e
00000270: a4f8 093e 4aaf 473e f95c be3e e261 2fbe
00000280: 8a5f 013f 0998 1abe 5bc9 98be e70e aa3c
00000290: c641 93be d04a 8fbe 092d 45be 8a7d c0be
000002a0: 3ad1 d4bd 6464 30bb a672 493e 2322 86be
000002b0: c715 ffbd db1f cfbd a8e3 82be e43d 73be
000002c0: 9b10 afbe 1f2a 363d 3562 8abe 4387 6dbe
000002d0: 879f 64be a781 68ba 38fa 91be 0d09 81be
000002e0: 5247 e6bd 7fd2 1bbd 77d1 a2bd 2fbd c83e
000002f0: 1c06 91be 59dd babe 68b2 953e e176 6ebd
00000300: d3be a4bd 4bc8 5dbe d737 d7be 87d8 633c
00000310: 4a15 383e 3f3b fb3d 0c41 153e 5279 32bd
00000320: 8070 5d3d 565d 443d c045 aebe 6400 c83e
00000330: 77fc 8f3e b739 3bbe 8336 b6be 999e 0d3e
00000340: ef10 c4be bb40 8d3d cdfc cabd b277 95be
00000350: 187e 8e3c 12b5 2fbd ecab 1bbe db3e 01be
00000360: caac a93e 9a5b 753d 1ec6 b43c b323 c43e
00000370: fb68 063c 7efc 383e 086e 65be 6e76 e93e
00000380: 7842 f63c 7319 fb3c b4e2 93bb 661d 1dbd
00000390: c65b 7cbe 8d69 cd3e 0d4a c5bd 8d49 55be
000003a0: 879a 0cbe b3a1 cfbe fb9f 33be 7ffc a4bc
000003b0: 1f98 37be 2a30 2f3e 89d1 9cbe 8643 033e
000003c0: 04dd ee3e 3b88 a6bc 9cda c73d 6a6c 5dbe
000003d0: 28f3 5dbd f5de d83d b170 67bd 6e5c f03d
000003e0: b0ad 9dbe 5f87 763e 5fbb 52be 4db5 033f
000003f0: 5ec2 4ebc ccfc 9a3c 2ee4 053e 4b9f 843e

weight f4 [32]
3.1349165 2.7903678 2.9310415 3.1857471 2.3793747 2.3628275 3.3103504 1.5281887
2.5508773 2.6637442 3.483035 2.56187 1.5950595 2.0067983 1.7737137 1.8604828
0.16666411 2.0100424 2.1817634 3.6185012 1.1936157 0.91222143 0.9757078 1.1607132
3.6640744 2.397857 2.2961175 3.034275 1.9377965 1.7449155 1.6147779 2.1869168
00000000: 79a2 4840 6395 3240 2f96 3b40 48e3 4b40
00000010: ad47 1840 9138 1740 c8dc 5340 b09b c33f
00000020: 9341 2340 c97a 2a40 0cea 5e40 aef5 2340
00000030: e92a cc3f 626f 0040 0d09 e33f 4d24 ee3f
00000040: ffa9 2a3e 89a4 0040 03a2 0b40 8695 6740
00000050: 66c8 983f 5887 693f fdc7 793f 4092 943f
00000060: 3280 6a40 7d76 1940 97f3 1240 9031 4240
00000070: b709 f83f 6459 df3f 0bb1 ce3f 72f6 0b40

bias f4 [32]
0.011126405 -0.28166428 0.49109152 -0.25585023 -0.7022011 0.3701626 -0.24100894 -0.6795807
0.08751405 -0.11800202 0.3084336 0.5146558 -0.42467046 -0.50284 0.568851 0.55275345
-0.12472583 -0.3564753 0.50016433 0.40680414 0.5360721 -0.23176302 -0.5105542 0.37124872
-0.1583551 -0.45029277 0.21122612 0.53786993 -0.48132294 0.79600954 -0.3232899 -0.78202426
00000000: 864b 363c 4d36 90be 5970 fb3e cdfe 82be
00000010: 74c3 33bf f485 bd3e 0ccb 76be 00f9 2dbf
00000020: 913a b33d 0bab f1bd 02eb 9d3e 7cc0 033f
00000030: 686e d9be 1fba 00bf 38a0 113f 4081 0d3f
00000040: 4270 ffbd ee83 b6be c50a 003f a248 d03e
00000050: 053c 093f 4953 6dbe aeb3 02bf 5014 be3e
00000060: d727 22be c68c e6be a94b 583e d8b1 093f
00000070: f66f f6be 48c7 4b3f 4186 a5be be32 48bf

running_mean f4 [32]
-0.040456284 -0.048736293 -0.21102522 0.019686304 -0.051524233 -0.21104954 0.0140406415 0.22369152
-0.027217578 -0.033329986 -0.17829902 -0.14123474 0.034996774 0.29267013 -0.20101997 -0.2314028
0.10822649 0.2003695 -0.20040397 -0.26702246 -0.11942329 -0.08051162 -0.030728813 -0.15951018
0.1869353 -0.036261953 -0.03826285 -0.011571554 -0.022880057 -0.21014987 -0.09592703 0.15631875
00000000: 7db5 25bd b59f 47bd ff16 58be 2c45 a13c
00000010: 130b 53bd 5f1d 58be b80a 663c 640f 653e
00000020: 66f7 debc 0685 08bd 0594 36be d79f 10be
00000030: c758 0f3d dcd8 953e 2ed8 4dbe dbf4 6cbe
00000040: daa5 dd3d aa2d 4d3e b336 4dbe 2bb7 88be
00000050: 3394 f4bd 47e3 a4bd feba fbbc a356 23be
00000060: f86b 3f3e 6a87 14bd 82b9 1cbd 9d96 3dbc
00000070: f56e bbbc 8731 57be 6475 c4bd 0612 203e

running_var f4 [32]
0.019966066 0.011647763 0.016654598 0.012615662 0.005890453 0.024554664 0.007782739 0.0127487965
0.010457745 0.009508255 0.01606071 0.008903695 0.022147851 0.03382582 0.017885271 0.019887732
0.010083613 0.015542347 0.015950069 0.017989304 0.012421306 0.031717423 0.012052316 0.009871591
0.016437894 0.023897879 0.0070470055 0.011570969 0.03260377 0.013405859 0.009832984 0.013680412
00000000: e08f a33c 42d6 3e3c 396f 883c ecb1 4e3c
00000010: b304 c13b dd26 c93c 5906 ff3b 54e0 503c
00000020: f656 2b3c 83c8 1b3c c091 833c cee0 113c
00000030: 696f b53c f18c 0a3d 2284 923c 99eb a23c
00000040: bd35 253c 54a5 7e3c b8a9 823c 4e5e 933c
00000050: bc82 4b3c 21ea 013d 1477 453c 74bc 213c
00000060: c3a8 863c 7cc5 c33c 91ea e63b 2994 3d3c
00000070: 888b 053d 3fa4 5b3c 861a 213c cf23 603c

weight f4 [128, 32, 3, 3]
0.10031453 -0.0022806188 -0.010303868 0.10881572 0.085394256 0.087083735 0.12195168 -0.036523342
0.026140423 -0.059402835 -0.113148525 0.03121356 0.083449475 -0.19253278 0.0014993672 -0.18677416
0.004907351 0.003988641 0.0088661 -0.09793962 0.09768149 -0.059206095 0.0016032428 -0.07086392
0.0051828744 -0.03431777 0.2943865 -0.06607957 -0.05328687 0.12450394 0.09805671 -0.041706547
-0.20136951 -0.036307357 0.0032437278 -0.07736621 -0.20040111 0.19144967 -0.012613029 0.0869052
-0.14587711 -0.0067972387 0.06483603 -0.023697684 0.06225938 0.35665596 -0.0029428895 0.09478275
-0.16990556 -0.008638957 0.13386169 0.017807864 0.16879131 0.071949996 -0.084175244 0.108845085
-0.14362763 0.02799541 -0.01960395 0.048666112 0.091289185 -0.40308678 0.13483585 -0.022862056
-0.03986854 -0.072187066 0.068727 -0.32446584 0.041456077 -0.016060675 -0.018710697 -0.46496037
0.18972062 -0.19674106 0.0072172373 0.009439494 -0.054521427 0.0019638825 0.10948014 0.1345253
0.01782497 -0.07432403 -0.08266681 0.3088386 0.16622648 -0.054211143 -0.06964749 -0.0011832208
0.09321859 -0.076968476 -0.071505584 0.039189447 0.09065324 -0.024022425 -0.05270785 -0.097355425
0.08767988 0.024271993 -0.029676475 0.09881863 0.1353361 0.104915954 -0.124806605 0.1446868
0.0005230173 0.07488465 0.085336186 0.09194223 0.14791963 0.056437384 -0.019384172 -0.095788956
0.13382512 -0.1687756 -0.015182538 0.028383428 0.12413309 -0.107037485 0.10285969 0.070173696
-0.00487978 -0.029568639 0.09873149 -0.00573515 0.052040357 -0.054657128 -0.09890897 0.1798544
0.19429456 0.034446422 -0.14793715 0.20805043 0.20256396 -0.02768024 0.23470324 -0.11041346
0.20901112 0.48643243 0.030453632 -0.052086487 0.030799912 0.05045943 0.11294461 -0.09181017
-0.16142997 0.012165481 -0.28019458 -0.09832939 -0.050839283 0.10855508 0.0012509677 -0.015754974
0.19435337 0.030897075 -0.14022689 -0.4576039 -0.059322007 0.035679292 -0.004380779 0.12322814
-0.20324913 0.010077637 -0.016155455 0.2435964 0.260505 0.113736294 -0.052709494 0.45177755
0.08832537 0.067521036 0.31851584 -0.119909205 0.14273785 0.069781825 0.019297864 -0.14558017
0.5075987 -0.033050347 -0.019143246 0.26882568 -0.070400864 0.16627817 0.007884833 0.09600604
0.0764953 0.17478706 0.20128004 0.0027315617 0.82585615 0.05861257 0.16541158 -0.22684968
-0.053891912 0.02044849 -0.11874782 -0.046328764 0.1326376 0.2350962 -0.13254474 0.0037898796
0.044735488 -0.11476466 -0.11182754 -0.015624794 -0.05391828 -0.30230254 -0.08415236 0.037624374
-0.018741734 0.047316376 -0.035474226 0.05207475 -0.03981902 -0.04487333 0.007893587 0.23945893
-0.06271956 0.021933218 0.28153005 0.09948369 0.067398176 -0.013498577 0.053483766 -0.06711601
0.10665735 -0.0020530268 -0.0030000594 0.06704053 0.12434608 0.058888026 -0.12416296 -0.028080892
-0.16015346 -0.080201685 -0.19360597 0.019993437 0.08998815 -0.023948437 0.077873096 -0.04926249
0.013629126 0.019838285 0.08223785 0.12330958 -0.020695584 -0.07165354 -0.029225098 0.046881005
-0.010090478 0.14686923 0.36561626 -0.0627804 0.23552172 -0.013203639 0.010816413 -0.057666413
00000000: b471 cd3d 6f76 15bb 8ed1 28bc c7da de3d
00000010: 2fe3 ae3d f558 b23d cdc1 f93d 8099 15bd
00000020: 7124 d63c 6350 73bd 6aba e7bd 94b3 ff3c
00000030: 8fe7 aa3d 5027 45be 6a86 c43a ba41 3fbe
00000040: d8cd a03b 25b3 823b 1e43 113c 9194 c8bd
00000050: 3c0d c83d 1782 72bd e723 d23a 1a21 91bd
00000060: 1ad5 a93b ca90 0cbd d4b9 963e ba54 87bd
00000070: 5543 5abd ecfb fe3d f5d1 c83d 7cd4 2abd
00000080: cf33 4ebe 06b7 14bd b994 543b 2d72 9ebd
00000090: f335 4dbe 620b 443e e1a6 4ebc 5afb b13d
000000a0: cf60 15be 5fbb debb c1c8 843d a521 c2bc
000000b0: b103 7f3d 9c9b b63e 7edd 40bb 751d c23d
000000c0: b9fb 2dbe 698a 0dbc 0a13 093e cce1 913c
000000d0: a1d7 2c3e 855a 933d 1264 acbd 2cea de3d
000000e0: 1f13 13be a156 e53c 7798 a0bc 1e56 473d
000000f0: d3f5 ba3d 6461 cebe 6912 0a3e 3549 bbbc
00000100: 324d 23bd d0d6 93bd bec0 8c3d 6320 a6be
00000110: d9cd 293d ad91 83bc 2d47 99bc 490f eebe
00000120: 1f46 423e 7d76 49be 937e ec3b 1ca8 1a3c
00000130: dc51 5fbd 7bb4 003b 2037 e03d 00c1 093e
00000140: ac05 923c 3237 98bd 374d a9bd 1820 9e3e
00000150: 4637 2a3e 810c 5ebd 58a3 8ebd 4d16 9bba
00000160: 63e9 be3d a6a1 9dbd 8571 92bd 1d85 203d
00000170: 68a8 b93d adca c4bc 30e4 57bd 4862 c7bd
00000180: 8291 b33d 0fd6 c63c 141c f3bc 6c61 ca3d
00000190: 8c95 0a3e 2dde d63d 9b9a ffbd c728 143e
000001a0: 191b 093a 205d 993d bdc4 ae3d 354c bc3d
000001b0: 3e78 173e e32a 673d 8ecb 9ebc 002d c4bd
000001c0: 7409 093e 83d3 2cbe 2ec0 78bc 5d84 e83c
000001d0: 7d39 fe3d 7836 dbbd 1aa8 d23d 3ab7 8f3d
000001e0: 90e6 9fbb ee39 f2bc bc33 ca3d eded bbbb
000001f0: 4528 553d 27e0 5fbd c990 cabd c02b 383e
00000200: 27f5 463e b117 0d3d d67c 17be 2c0b 553e
00000210: ed6c 4f3e acc1 e2bc 0c56 703e 7420 e2bd
00000220: 0307 563e ac0d f93e e579 f93c a458 55bd
00000230: 1950 fc3c 8cae 4e3d 814f e73d f806 bcbd
00000240: e64d 25be ba51 473c aa75 8fbe eb60 c9bd
00000250: da3c 50bd 2052 de3d 83f7 a33a 9310 81bc
00000260: 9204 473e dd1b fd3c a397 0fbe 0f4b eabe
00000270: a2fb 72bd 7324 123d a38c 8fbb 095f fc3d
00000280: 8a20 50be ac1c 253c 7258 84bc 5671 793e
00000290: e960 853e 93ee e83d e9e5 57bd 634f e73e
000002a0: eee3 b43d 7848 8a3d 8214 a33e f592 f5bd
000002b0: df29 123e c6e9 8e3d 8e16 9e3c f812 15be
000002c0: fdf1 013f cd5f 07bd 4cd2 9cbc 85a3 893e
000002d0: 542e 90bd d344 2a3e 632f 013c d19e c43d
000002e0: 91a9 9c3d 61fb 323e 5b1c 4e3e 0004 333b
000002f0: 4f6b 533f bc13 703d a761 293e 484b 68be
00000300: c4bd 5cbd 9783 a73c 0f32 f3bd 3bc3 3dbd
00000310: 27d2 073e 0fbd 703e cfb9 07be a15f 783b
00000320: 8f3c 373d bc09 ebbd d605 e5bd 23ff 7fbc
00000330: 6ad9 5cbd 66c7 9abe 1358 acbd 041c 1a3d
00000340: 4488 99bc d1ce 413d 6c4d 11bd 554c 553d
00000350: 4519 23bd 19cd 37bd 1b54 013c b934 753e
00000360: 1d73 80bd 4bad b33c b524 903e 1bbe cb3d
00000370: 0e08 8a3d 2329 5dbc cb11 5b3d 1e74 89bd
00000380: 2b6f da3d 138c 06bb a59c 44bb 8c4c 893d
00000390: 28a9 fe3d 9234 713d 2649 febd e609 e6bc
000003a0: 45ff 23be c840 a4bd a540 46be 47c9 a33c
000003b0: b54b b83d 832f c4bc ee7b 9f3d 77c7 49bd
000003c0: b34c 5f3c e683 a23c 516c a83d bc89 fc3d
000003d0: c989 a9bc 17bf 92bd 7969 efbc 4c06 403d
000003e0: 8852 25bc e364 163e 0e32 bb3e 0393 80bd
000003f0: 9b2c 713e 1354 58bc 5337 313c 9e33 6cbd

weight f4 [128]
3.5358844 4.1540265 2.9177375 3.0072598 2.964556 3.1959293 2.9602678 3.7662096
3.8156435 4.017866 3.7693121 4.486537 3.6795654 3.8421338 3.8402133 3.0008063
3.243668 3.8144546 4.125966 3.4089904 3.7900083 4.460024 3.369182 3.5619404
3.801004 3.068055 3.1605005 4.499163 3.9781613 3.0345292 2.2209795 2.834066
4.3767986 3.6478539 3.168152 3.2682643 4.2863073 4.076252 3.4695218 3.7190716
3.777583 3.4731474 2.244515 3.3331149 2.9243765 3.4059744 3.5083883 3.0930464
3.2064118 2.819729 4.2971225 3.592581 4.179581 3.610916 2.5511408 3.6489887
3.6235979 3.3403347 2.912193 3.5034533 3.964232 3.732326 3.6485724 3.2985172
5.018576 3.0707796 4.664547 3.7545323 3.892167 3.6466238 3.4066396 3.028195
3.3453119 3.01518 3.3851109 3.9246972 3.0952032 4.1323056 4.4988885 3.4762957
4.160365 3.326292 3.6194181 3.460594 3.160374 3.0708702 3.195703 4.432676
3.2092083 3.4817235 4.600721 3.7017546 3.4738288 1.796432 3.286508 3.0010943
3.5110958 3.3080046 4.21365 2.7848213 3.9053972 3.6921396 3.129135 3.1877525
3.745721 4.2071166 3.426764 2.0669622 3.0537384 4.870117 4.4021955 4.905526
2.7025568 3.6547678 4.0019107 3.664694 2.817611 3.1347487 4.08491 5.155175
3.3817341 3.6596987 3.4595973 3.60261 4.0385823 2.883018 2.8628967 2.2723272
00000000: ee4b 6240 c9ed 8440 36bc 3a40 f276 4040
00000010: 49bb 3d40 1b8a 4c40 0775 3d40 9409 7140
00000020: 8133 7440 5c92 8040 693c 7140 b691 8f40
00000030: 007e 6b40 85e5 7540 0ec6 7540 360d 4040
00000040: 4298 4f40 0620 7440 ea07 8440 e62c 5a40
00000050: 7f8f 7240 84b8 8e40 aea0 5740 d5f6 6340
00000060: a643 7340 035b 4440 a445 4a40 25f9 8f40
00000070: 329a 7e40 ba35 4240 8724 0e40 5661 3540
00000080: bc0e 8c40 7076 6940 01c3 4a40 3e2b 5140
00000090: 6e29 8940 a870 8240 a50c 5e40 4505 6e40
000000a0: ebc3 7140 0c48 5e40 22a6 0f40 c151 5540
000000b0: fc28 3b40 7cfb 5940 6f89 6040 79f4 4540
000000c0: da35 4d40 7176 3440 0782 8940 d9ec 6540
000000d0: 21bf 8540 3f19 6740 e445 2340 0889 6940
000000e0: 07e9 6740 0bc8 5540 5f61 3a40 9438 6040
000000f0: fab5 7d40 6ede 6e40 3682 6940 e81a 5340
00000100: 2d98 a040 a787 4440 f843 9540 424a 7040
00000110: 4419 7940 4962 6940 6206 5a40 f2cd 4140
00000120: 9719 5640 b6f8 4040 a8a5 5840 3d2e 7b40
00000130: cf17 4640 d93b 8440 e5f6 8f40 a17b 5e40
00000140: b621 8540 f8e1 5440 8ca4 6740 5f7a 5d40
00000150: 9143 4a40 2389 4440 6686 4c40 7bd8 8d40
00000160: ab63 4d40 8fd4 5e40 1b39 9340 8ce9 6c40
00000170: 3653 5e40 7cf1 e53f 2656 5240 ee11 4040
00000180: cbb5 6040 59b6 5340 39d6 8640 833a 3240
00000190: 07f2 7940 044c 6c40 bf43 4840 2304 4c40
000001a0: e5b9 6f40 b3a0 8640 1a50 5b40 1c49 0440
000001b0: 7370 4340 00d8 9b40 c9de 8c40 12fa 9c40
000001c0: b1f6 2c40 b7e7 6940 a70f 8040 598a 6a40
000001d0: bd53 3440 b99f 4840 95b7 8240 32f7 a440
000001e0: 556e 5840 8138 6a40 0b6a 5d40 2a91 6640
000001f0: 113c 8140 5e83 3840 b339 3740 cf6d 1140

bias f4 [128]
-0.21778484 -0.43377906 0.003054938 -0.3555498 0.15788262 0.28268945 0.26354718 -0.21003883
-0.4603687 -0.34530684 -0.181102 0.38646656 0.16849802 0.133419 -0.17393486 0.09439007
0.30248517 0.06865761 -0.35197055 -0.3932383 0.043686837 -0.21524014 -0.0064240573 -0.3278731
0.17774907 0.24451627 -0.12454996 0.092208646 0.22397283 0.024625028 -0.121610984 -0.06982728
0.06268444 0.12491343 -0.01212793 0.034557775 -0.19233298 -0.23331366 0.26058146 0.54996675
-0.03610924 -0.23108627 0.16017288 0.0838314 0.0819548 -0.13196743 -0.16515654 -0.22842148
0.10084877 0.109924994 -0.033016413 -0.23244189 0.0052380753 0.063904494 -0.013492808 -0.19206794
-0.24855073 0.26614985 0.43368033 -0.052644216 0.26404533 0.049248047 -0.08519989 0.00092674745
-0.06088536 0.056858923 -0.021475436 0.35700664 -0.122954324 -0.43176153 -0.103810005 0.4352513
0.4067281 0.31566837 -0.052192092 0.37737158 -0.4646736 -0.0022164003 0.16685359 0.118028976
-0.041004848 0.051001765 -0.21374558 -0.32755047 0.20188497 -0.19979662 0.17857009 0.06736123
0.21038428 0.010594494 0.29578382 -0.1922113 -0.17385015 -0.3433908 -0.006739255 -0.15046239
-0.038464934 0.30628514 -0.028117433 -0.13792397 0.25194135 -0.03744022 0.10966541 0.13596286
-0.054489024 -0.05010528 1.3605851e-05 0.17986861 -0.23069936 0.15755142 -0.00032860233 0.16198894
-0.29250342 0.2831725 -0.024592401 0.026313093 0.08005502 -0.03926636 0.052891947 0.4490211
0.09787229 0.35377777 -0.072195254 0.42093024 0.22215714 -0.22642638 0.09482016 0.021448586
00000000: fd02 5fbe 4a18 debe 5b35 483b a00a b6be
00000010: fbab 213e acbc 903e a8ef 863e 6b14 57be
00000020: 72b5 ebbe 0fcc b0be cd72 39be f2de c53e
00000030: bf8a 2c3e fe9e 083e fb1b 32be 954f c13d
00000040: 56df 9a3e 5c9c 8c3d 7c35 b4be 8856 c9be
00000050: f8f0 323d e967 5cbe e680 d2bb fcde a7be
00000060: da03 363e 7962 7a3e 0d14 ffbd e3d7 bc3d
00000070: 2259 653e 6dba c93c 2e0f f9bd 9b01 8fbd
00000080: b360 803d 9dd2 ff3d 3ab4 46bc 748c 0d3d
00000090: f0f2 44be c7e9 6ebe ef6a 853e 9fca 0c3f
000000a0: 48e7 13bd e1a1 6cbe 5c04 243e ccaf ab3d
000000b0: ebd7 a73d 7822 07be cc1e 29be 52e7 69be
000000c0: cd89 ce3d 5b20 e13d 383c 07bd 3f05 6ebe
000000d0: 29a4 ab3b 5ce0 823d f010 5dbc 75ad 44be
000000e0: 1584 7ebe cb44 883e 590b de3e 76a1 57bd
000000f0: f330 873e 52b8 493d 487d aebd f8f0 723a
00000100: ed62 79bd e7e4 683d 41ed afbc 93c9 b63e
00000110: 7acf fbbd d90f ddbe 579a d4bd 42d9 de3e
00000120: aa3e d03e 499f a13e 60c7 55bd d936 c13e
00000130: b3e9 edbe 0741 11bb abdb 2a3e 2db9 f13d
00000140: b3f4 27bd 3ae7 503d 1fe0 5abe b2b4 a7be
00000150: efba 4e3e 7c97 4cbe 14db 363e aff4 893d
00000160: fa6e 573e 8794 2d3c fa70 973e 0ad3 44be
00000170: c605 32be ebd0 afbe f8d4 dcbb d012 1abe
00000180: 688d 1dbd 68d1 9c3e 8856 e6bc f13b 0dbe
00000190: 75fe 803e eb5a 19bd 4298 e03d d939 0b3e
000001a0: e22f 5fbd 323b 4dbd af44 6437 7a2f 383e
000001b0: 743c 6cbe 2955 213e 4248 acb9 6ee0 253e
000001c0: 02c3 95be fcfb 903e 0176 c9bc 8e8e d73c
000001d0: e3f3 a33d c3d5 20bd 3aa5 583d 18e6 e53e
000001e0: 4471 c83d 5c22 b53e 1bdb 93bd 2b84 d73e
000001f0: 297d 633e 51dc 67be 1231 c23d f2b4 af3c

running_mean f4 [128]
0.8625912 -0.761755 -0.18846132 -0.23298857 0.38260207 -0.42560905 0.06831495 0.4031164
0.43213567 -0.88587713 -0.27611881 0.40201902 0.59075546 0.7282958 -0.5626034 -0.53072685
-0.6835519 -0.15688987 0.0039142505 -0.39925012 -0.39677688 0.55584836 -0.46293354 0.35312963
0.4070847 1.1247839 -0.106283486 1.1160281 -0.7198871 -0.19343476 -0.8876763 0.2304597
0.019669546 0.24241516 0.35533375 -0.9384776 -0.60620886 0.22187516 -0.41633317 0.19946696
-0.2811337 -0.4310879 -0.7625426 -0.33623248 0.51105213 -0.48446015 -0.65733516 0.51487166
0.24200018 0.1300794 -0.21620019 0.39989752 -1.080335 -0.20496792 -0.39597365 -0.15099366
-0.11380481 0.5208265 -0.54989666 0.18852584 0.31991005 0.47781542 0.0014267229 -0.15829109
0.19893618 0.0054390426 -0.6357264 -0.10251485 -0.35692126 -0.36977383 0.35508397 0.43300885
0.57422894 0.12212375 0.0012519441 0.01785066 0.11938949 0.59421927 -0.8685384 0.60407656
-0.048191447 -0.13945967 -1.218856 -0.95503104 0.6646095 0.18650028 -0.010782659 -0.19742125
0.40476897 1.1773592 0.94599056 0.24455698 -0.551294 -0.7591617 0.19879696 0.08948919
-0.0049096234 -0.006272098 -0.7403388 -0.5430871 0.11181983 0.9128623 0.735599 -0.94383544
0.23523588 -0.5094572 -0.14000836 -0.030757738 -0.2664089 0.37694222 -0.4821244 0.03771819
0.29413384 0.17682083 -0.102885075 -0.5248185 -0.268392 0.88097924 -0.5895679 -0.1341022
0.037883587 0.14955829 -0.18722041 -0.40230542 -0.8902606 0.15191372 -0.36194426 -0.1579444
00000000: c7d2 5c3f 6002 43bf 01fc 40be 8e94 6ebe
00000010: 6be4 c33e 6ee9 d9be b5e8 8b3d 4665 ce3e
00000020: e340 dd3e d8c8 62bf 725f 8dbe 70d5 cd3e
00000030: c03b 173f 9871 3a3f c706 10bf b7dd 07bf
00000040: 42fd 2ebf bda7 20be 1d43 803b 836a ccbe
00000050: 5726 cbbe 144c 0e3f a005 edbe 68cd b43e
00000060: 686d d03e ebf8 8f3f 28ab d9bd 02da 8e3f
00000070: 854a 38bf c313 46be c13e 63bf a1fd 6b3e
00000080: 0722 a13c ae3b 783e 4eee b53e 1140 70bf
00000090: 8130 1bbf 3e33 633e 9f29 d5be 1141 4c3e
000000a0: c2f0 8fbe 8eb7 dcbe fe35 43bf aa26 acbe
000000b0: 50d4 023f 290b f8be 1e47 28bf a1ce 033f
000000c0: e5ce 773e 8933 053e 9563 5dbe 5ebf cc3e
000000d0: 6b48 8abf 1ce3 51be 0fbd cabe 159e 1abe
000000e0: 7f12 e9bd e354 053f 07c6 0cbf eb0c 413e
000000f0: 40cb a33e 39a4 f43e e000 bb3a 0f17 22be
00000100: edb5 4b3e ff39 b23b f7be 22bf 4ef3 d1bd
00000110: 62be b6be ff52 bdbe 91cd b53e 56b3 dd3e
00000120: ab00 133f 041c fa3d 4618 a43a 8c3b 923c
00000130: 7a82 f43d c11e 183f 8858 5ebf c3a4 1a3f
00000140: 6564 45bd 84ce 0ebe 7903 9cbf ea7c 74bf
00000150: d923 2a3f eef9 3e3e c0a9 30bc cc28 4abe
00000160: e13d cf3e b5b3 963f 702c 723f 256d 7a3e
00000170: 9b21 0dbf 6c58 42bf 6e91 4b3e 1c46 b73d
00000180: e8e0 a0bb 2c86 cdbb d886 3dbf c207 0bbf
00000190: cc01 e53d 58b1 693f 3750 3c3f 339f 71bf
000001a0: ade1 703e c96b 02bf 5a5e 0fbe a7f7 fbbc
000001b0: bf66 88be 92fe c03e 02d9 f6be 647e 1a3d
000001c0: b698 963e 8510 353e 69b5 d2bd 815a 06bf
000001d0: ad6a 89be db87 613f eced 16bf 1652 09be
000001e0: d22b 1b3d cf25 193e b5b6 3fbe fafa cdbe
000001f0: 1ee8 63bf 458f 1b3e c250 b9be 2dbc 21be

running_var f4 [128]
7.2349586 13.41662 5.7883453 8.192792 9.553271 7.1387086 7.5777445 11.31139
9.241947 9.359576 7.452424 11.031264 9.317621 11.870974 10.584007 5.488148
8.062443 7.42015 8.725466 7.6052723 9.359431 9.319317 8.8970375 9.536043
10.844681 7.8260884 9.190877 11.6248045 7.0425377 7.100826 5.5136952 5.35562
10.566279 7.6837277 6.0797477 6.725309 7.4858503 11.286935 7.511279 8.887836
9.0684595 8.066713 6.3109303 8.054147 6.3402824 12.484 8.449475 8.144627
6.9651837 6.6937456 9.858666 6.6765785 13.575702 8.750384 5.6207504 9.180533
15.769122 6.780936 5.988151 8.702933 9.620263 9.912593 7.3423657 10.287781
13.124606 7.066487 14.603588 7.629797 9.565498 7.371862 6.4369407 6.73194
9.02381 6.412705 8.67622 12.338311 7.480784 10.333292 19.432981 9.280873
9.148403 7.9841533 16.24466 12.804958 6.652757 5.203878 5.490044 11.222883
5.7187414 7.317554 16.45321 8.009692 6.722578 3.9617624 6.8512135 5.662951
8.375566 9.162833 11.601161 4.7174406 10.63845 9.487302 7.194785 6.9861393
9.040417 9.852174 9.870552 4.327247 5.871006 12.234022 14.062576 11.369105
4.9648914 6.8999367 10.398642 8.18502 6.2964196 6.231339 12.276428 13.182032
10.46769 6.184587 6.425568 7.941787 8.858798 7.4286637 8.503526 5.3266435
00000000: c884 e740 7aaa 5641 203a b940 ad15 0341
00000010: 33da 1841 4d70 e440 e27c f240 74fb 3441
00000020: 04df 1341 d3c0 1541 427a ee40 0f80 3041
00000030: fa14 1541 82ef 3d41 1858 2941 e99e af40
00000040: c4ff 0041 de71 ed40 829b 0b41 645e f340
00000050: 3bc0 1541 ec1b 1541 445a 0e41 a293 1841
00000060: d083 2d41 516f fa40 d50d 1341 33ff 3941
00000070: 785c e140 f739 e340 3170 b040 3d61 ab40
00000080: 7b0f 2941 19e1 f540 4b8d c240 bb35 d740
00000090: 168c ef40 4997 3441 665c f040 9434 0e41
000000a0: 6918 1141 4211 0141 24f3 c940 c9dd 0041
000000b0: 98e3 ca40 77be 4741 0d31 0741 6450 0241
000000c0: c9e2 de40 2a33 d640 19bd 1d41 88a6 d540
000000d0: 1336 5941 9301 0c41 30dd b340 77e3 1241
000000e0: 534e 7c41 6dfd d840 ef9e bf40 373f 0b41
000000f0: 99ec 1941 fb99 1e41 a9f4 ea40 c09a 2441
00000100: 63fe 5141 a920 e240 4ca8 6941 4c27 f440
00000110: 480c 1941 4be6 eb40 6bfb cd40 0d6c d740
00000120: 8761 1041 e134 cd40 ccd1 0a41 b969 4541
00000130: 9562 ef40 2a55 2541 bf76 9b41 757e 1441
00000140: dc5f 1241 2f7e ff40 10f5 8141 1ce1 4c41
00000150: 63e3 d440 2b86 a640 71ae af40 ee90 3341
00000160: eeff b640 6729 ea40 2da0 8341 b327 0041
00000170: 5c1f d740 848d 7d40 243d db40 e536 b540
00000180: 5102 0641 f79a 1241 5b9e 3941 46f5 9640
00000190: 1737 2a41 fdcb 1741 ae3b e640 748e df40
000001a0: 8ca5 1041 81a2 1d41 c8ed 1d41 cf78 8a40
000001b0: 48df bb40 8ebe 4341 5000 6141 dbe7 3541
000001c0: 64e0 9e40 48cc dc40 d660 2641 d8f5 0241
000001d0: 457c c940 2167 c740 406c 4441 9ae9 5241
000001e0: a97b 2741 23e8 c540 419e cd40 1e23 fe40
000001f0: a3bd 0d41 9db7 ed40 710e 0841 dd73 aa40

weight f4 [32, 128, 3, 3]
-0.11176734 0.024686674 0.1787883 0.24526726 0.011138794 -0.2425057 -0.0020756326 -0.013852372
-0.08263323 0.22932746 0.022095002 0.060748708 -0.03971989 -0.044287495 0.2280661 0.016903028
-0.05777927 -0.02789064 0.07702 -0.02356047 0.06275916 0.14701885 0.17089532 0.06378638
0.13843618 -0.20022202 0.318612 -0.051375203 -0.012603226 0.0081743235 0.065067984 0.06112599
0.11764974 0.27597764 -0.23869818 -0.19412327 0.013009055 0.03668722 0.044130094 0.11125459
-0.02691236 -0.11313994 -0.03576427 0.13809188 0.15300405 -0.14285111 0.005532808 0.04665955
0.1129566 -0.036061477 -0.111148976 0.2480566 -0.12409137 -0.21880633 -0.07743691 -0.22941008
0.07984366 0.113760084 0.08462744 0.0019399127 0.18579459 -0.09919944 0.0386023 0.05350361
-0.141451 0.13149169 0.026680259 -0.041052625 -0.11992624 -0.027634736 -0.37124416 0.23718758
0.008934107 0.18440236 0.09392687 0.028794028 0.009779796 0.13688436 0.03153468 0.12366957
0.19444811 -0.08007294 -0.028490646 0.04399164 -0.064905964 -0.07576489 0.101497926 0.004946558
0.097751305 -0.1001546 -0.14048316 0.062318932 0.007374573 0.13332796 -0.0026611895 -0.13872157
-0.35302854 0.15664244 0.21911028 0.10271451 -0.04067801 -0.25603458 0.024871169 0.060718898
-0.076522835 0.0036657238 0.07029399 -0.015908143 -0.03965256 0.16496252 0.22272459 -0.15199842
0.047436725 -0.019921716 -5.2308293e-05 0.017722469 -0.060729064 -0.11254335 -0.085979626 0.03338767
0.0033666259 0.11579514 0.18118814 -0.1152471 0.1671968 0.10959333 0.24341993 0.08959809
0.0455217 0.054475203 -0.05567332 0.11628607 0.16972099 0.11388259 -0.025332788 -0.27576447
-0.03806518 0.062373284 0.043648634 -0.06964172 -0.3430015 0.070233524 0.0011937764 0.2222413
0.06856139 0.209854 0.06094859 -0.05699899 0.09981502 0.09311864 0.0076471404 0.047081523
-0.012850511 -0.014645559 0.02168973 -0.02582023 0.026732316 0.13170655 0.1808488 0.09469227
0.016669828 0.18783425 0.08746582 -0.054807406 0.04510055 0.029909516 0.03926078 -0.20579048
0.035124216 0.40955293 0.050161444 0.100846596 0.11648784 -0.0052500595 0.1068541 0.06782681
0.26739812 0.16783023 0.1799454 0.031083923 -0.093159094 -0.16536762 -0.005114589 -0.052828696
-0.05410461 -0.1573429 0.11929455 -0.07054921 -0.007787248 0.0066766813 0.12823936 -0.22789556
-0.16116272 -0.017704828 0.11306769 -0.10879449 -0.032376856 -0.15283719 -0.06918473 -0.018605825
-0.13432768 -0.12539214 -0.082069404 -0.12201323 0.12968604 -0.25568095 0.075237095 0.14745352
0.09724859 0.1424294 0.060027756 -0.012484255 0.11583562 0.017774532 -0.019925801 0.124156915
-0.08259968 -0.054149963 0.035432503 0.0029474155 -0.10730973 -0.24350941 0.003839583 -0.15457135
-0.11207341 -0.18680856 0.053007733 0.0097532 -0.12966722 0.11258061 0.0688733 0.09637231
0.12676564 -0.017613165 0.0003064224 -0.02977263 -0.032265395 -0.05233402 0.015388587 0.20772575
-0.27829468 0.07395596 0.02452577 -0.11934981 -0.026779056 -0.17786421 -0.117149144 -0.31510523
0.27153236 0.057179257 -0.13211317 -0.10586067 -0.019841406 -0.07844377 -0.0628436 0.13480267
00000000: 46e6 e4bd b53b ca3c 4814 373e 5727 7b3e
00000010: 7d7f 363c 6a53 78be 5607 08bb 0ff5 62bc
00000020: 9c3b a9bd d1d4 6a3e 9400 b53c a3d3 783d
00000030: 53b1 22bd ce66 35bd 298a 693e 3878 8a3c
00000040: f5a9 6cbd e97a e4bc a9bc 9d3d e301 c1bc
00000050: e087 803d 1c8c 163e 2fff 2e3e 6fa2 823d
00000060: 37c2 0d3e 0007 4dbe 1d21 a33e ce6e 52bd
00000070: c37d 4ebc 99ed 053c 5d42 853d 3f5f 7a3d
00000080: 59f2 f03d f14c 8d3e 4c6d 74be 40c8 46be
00000090: ee23 553c 5745 163d c2c1 343d 72d9 e33d
000000a0: 4f77 dcbc eab5 e7bd 8e7d 12bd f567 0d3e
000000b0: 18ad 1c3e 9047 12be 8f4c b53b 161e 3f3d
000000c0: ca55 e73d 33b5 13bd 13a2 e3bd 8d02 7e3e
000000d0: 9e23 febd c40e 60be 3e97 9ebd 7aea 6abe
000000e0: 1385 a33d 0cfb e83d 2751 ad3d ab44 fe3a
000000f0: f040 3e3e 1329 cbbd 721d 1e3d 9a26 5b3d
00000100: 88d8 10be c2a5 063e 8f90 da3c cc26 28bd
00000110: e39b f5bd 3e62 e2bc b713 bebe 4de1 723e
00000120: 5c60 123c f9d3 3c3e bb5c c03d 74e1 eb3c
00000130: 703b 203c 6a2b 0c3e 822a 013d 7946 fd3d
00000140: 681d 473e 48fd a3bd 3765 e9bc 9430 343d
00000150: 6bed 84bd 9f2a 9bbd 25de cf3d bc16 a23b
00000160: d631 c83d db1d cdbd d1da 0fbe 2342 7f3d
00000170: 67a6 f13b 2087 083e 5a67 2ebb 070d 0ebe
00000180: 28c0 b4be e066 203e 725e 603e fc5b d23d
00000190: fc9d 26bd f716 83be 9fbe cb3c 61b4 783d
000001a0: 01b8 9cbd a43c 703b 4cf6 8f3d cb51 82bc
000001b0: b96a 22bd efeb 283e ea11 643e 79a5 1bbe
000001c0: 034d 423d de32 a3bc 9a65 5bb8 b62e 913c
000001d0: 0abf 78bd 217d e6bd 1616 b0bd 82c1 083d
000001e0: 9ca2 5c3b 0126 ed3d 6289 393e ac06 ecbd
000001f0: a335 2b3e 7872 e03d 1343 793e 347f b73d
00000200: f674 3a3d 6421 5f3d b509 64bd 6427 ee3d
00000210: 57cb 2d3e 463b e93d b586 cfbc 0031 8dbe
00000220: 3cea 1bbd 217b 7f3d e9c8 323d 51a0 8ebd
00000230: e59d afbe 98d6 8f3d 7d78 9c3a 3993 633e
00000240: ea69 8c3d f8e3 563e 3ba5 793d c677 69bd
00000250: d16b cc3d fcb4 be3d dd94 fa3b 8ed8 403d
00000260: f38a 52bc edf3 6fbc a9ae b13c f284 d3bc
00000270: bbfd da3c 15de 063e 6e30 393e 05ee c13d
00000280: 2a8f 883c 9f57 403e 4821 b33d bb7d 60bd
00000290: 5bbb 383d cd04 f53c e9cf 203d bdba 52be
000002a0: 69de 0f3d ecb0 d13e 1676 4d3d a988 ce3d
000002b0: 2d91 ee3d b108 acbb 53d6 da3d c8e8 8a3d
000002c0: 68e8 883e b0db 2b3e 9b43 383e b6a3 fe3c
000002d0: 32ca bebd 2156 29be 4898 a7bb e762 58bd
000002e0: cc9c 5dbd 7f1e 21be b350 f43d 1b7c 90bd
000002f0: 2c2c ffbb 10c8 da3b 2e51 033e 745d 69be
00000300: d707 25be b709 91bc 0890 e73d a5cf debd
00000310: 989d 04bd 5a81 1cbe b9b0 8dbd 3e6b 98bc
00000320: 328d 09be cc66 00be 0114 a8bd 13e2 f9bd
00000330: 6bcc 043e 9de8 82be e815 9a3d 0efe 163e
00000340: 452a c73d 03d9 113e aadf 753d c38a 4cbc
00000350: 3a3b ed3d e59b 913c 6f3b a3bc fb45 fe3d
00000360: 052a a9bd 5acc 5dbd ac21 113d 6d29 413b
00000370: 34c5 dbbd 885a 79be 83a1 7b3b f447 1ebe
00000380: be86 e5bd be4a 3fbe a31e 593d e3cb 1f3c
00000390: 7cc7 04be aa90 e63d 720d 8d3d d85e c53d
000003a0: dace 013e 7c49 90bc 51a7 a039 bbe5 f3bc
000003b0: b828 04bd 335c 56bd 6920 7c3c 0fb6 543e
000003c0: a47c 8ebe 3976 973d 45ea c83c ac6d f4bd
000003d0: c05f dbbc 0922 36be e4eb efbd 7955 a1be
000003e0: 4a06 8b3e cc34 6a3d ad48 07be 7bcd d8bd
000003f0: 728a a2bc 21a7 a0bd 25b4 80bd b609 0a3e

weight f4 [32]
1.3861573 1.3867041 1.2814426 1.3581579 1.3480947 2.1924298 1.4800926 1.129964
1.2820877 1.4548832 1.8785809 1.3687892 1.4521362 1.4463272 1.3129488 1.4098779
1.0764732 1.354453 2.221488 1.6894357 1.9237894 1.5043751 2.3030715 1.4806751
1.2890939 1.5196705 1.8940744 1.6212766 1.475028 1.2239373 1.1752117 1.2072049
00000000: 9a6d b13f 857f b13f 5006 a43f 1ed8 ad3f
00000010: 5e8e ac3f c550 0c40 ad73 bd3f a9a2 903f
00000020: 731b a43f 9d39 ba3f 5775 f03f 7c34 af3f
00000030: 99df b93f 4021 b93f b50e a83f e176 b43f
00000040: e0c9 893f b75e ad3f dc2c 0e40 6e3f d83f
00000050: bb3e f63f 5d8f c03f 8665 1340 c386 bd3f
00000060: 0701 a53f 9084 c23f 0871 f23f fe85 cf3f
00000070: b8cd bc3f faa9 9c3f 566d 963f b185 9a3f

bias f4 [32]
-0.43801504 -0.323978 -0.18373744 -0.59444577 -0.43153462 -0.12530576 -0.5192316 -0.454204
-0.5871348 -0.423383 0.0077769984 -0.48910567 -0.38411617 -0.51283467 -0.26676962 -0.34212965
-0.73563904 -0.5639696 -0.13827626 -0.36691144 -0.25428894 -0.31022465 -0.3954642 -0.22093669
-0.33427164 -0.5860154 -0.40287578 -0.16488653 -0.4736445 -0.425336 -0.5975842 -0.67391723
00000000: 8243 e0be 72e0 a5be ab25 3cbe 992d 18bf
00000010: 1bf2 dcbe 2750 00be 5dec 04bf 6d8d e8be
00000020: 774e 16bf a8c5 d8be 31d6 fe3b 0f6c fabe
00000030: e0aa c4be 2249 03bf 0796 88be 9e2b afbe
00000040: d752 3cbf 5060 10bf 4b98 0dbe d1db bbbe
00000050: 2932 82be c4d5 9ebe 497a cabe 3a3d 62be
00000060: a725 abbe 1b05 16bf bc45 cebe 04d8 28be
00000070: 8881 f2be a4c5 d9be 47fb 18bf d785 2cbf

running_mean f4 [32]
-0.5809181 1.329675 -0.52956676 -0.58774173 -1.8332568 1.5766289 -2.0098045 1.5497988
0.9298334 0.60188484 1.26016 -1.7647201 -0.50540465 -1.3016199 0.75822556 -0.5259099
-1.7265967 -0.6611443 1.592212 0.9995124 1.3378448 1.0766804 1.1168562 1.6924123
-0.64534605 -0.46190742 1.5045266 0.8867638 1.0133342 -1.1285839 -0.12285531 0.19277902
00000000: 0cb7 14bf ca32 aa3f b091 07bf 3e76 16bf
00000010: 29a8 eabf face c93f a3a0 00c0 cf5f c63f
00000020: 9009 6e3f 2015 1a3f ec4c a13f 59e2 e1bf
00000030: 3362 01bf 7b9b a6bf 121b 423f 08a2 06bf
00000040: 1f01 ddbf c140 29bf 9acd cb3f 0be0 7f3f
00000050: 803e ab3f aad0 893f 25f5 8e3f f7a0 d83f
00000060: 6635 25bf 217f ecbe 5494 c03f f402 633f
00000070: efb4 813f 7075 90bf 919b fbbd dd67 453e

running_var f4 [32]
31.419764 34.497746 42.1771 37.283 36.095104 50.67386 38.154346 50.257195
34.18021 38.43206 48.72004 37.075287 39.155838 42.654613 39.30278 39.331535
68.56785 34.310875 49.403595 46.305046 53.49048 39.305897 60.463783 56.956642
47.20282 41.044006 49.137596 40.281914 43.70229 39.24955 26.845343 27.663778
00000000: ad5b fb41 b1fd 0942 5ab5 2842 cb21 1542
00000010: 6361 1042 08b2 4a42 0d9e 1842 5e07 4942
00000020: 89b8 0842 6eba 1942 52e1 4242 184d 1442
00000030: 949f 1c42 539e 2a42 0c36 1d42 7e53 1d42
00000040: bd22 8942 563e 0942 489d 4542 5e38 3942
00000050: 40f6 5542 3d39 1d42 eada 7142 9ad3 6342
00000060: b0cf 3c42 102d 2442 e68c 4442 ae20 2142
00000070: 25cf 2e42 8aff 1c42 43c3 d641 6b4f dd41

weight f4 [16, 32]
-0.13254355 0.224727 0.22756685 -0.18351115 -0.22114602 0.1964351 -0.110251464 -0.107046224
0.084618054 -0.052053176 0.18057473 -0.13019808 -0.09716537 -0.3058768 0.13422108 -0.1273566
-0.31877613 -0.28130272 0.19276047 0.12308965 0.21570021 0.076598674 0.17752995 0.1576334
-0.31775105 0.08100861 0.030272536 0.08534493 0.17659137 -0.10531225 0.1599019 0.10730912
-0.039857622 0.1214142 -0.028705122 0.1715105 0.12499974 -0.44964093 0.19261701 -0.001960518
0.07648646 -0.17531534 0.05407742 0.13262154 -0.09043707 0.119180955 0.083119705 -0.0937361
0.19821656 0.10976435 -0.22789477 0.16471446 -0.55490005 0.059730798 -0.103244625 0.03559273
0.096900925 0.21064273 -0.28014255 -0.02777459 0.02698577 0.15903512 0.13383286 0.2640249
-0.19240975 0.10827813 0.09091356 -0.2853611 -0.24787766 0.4502375 -0.2584552 -0.08489152
-0.14230476 0.020463364 0.09772614 -0.13307513 0.11981643 -0.22127254 0.12663743 -0.14719898
-0.46870935 -0.10355006 0.37600663 0.17799757 0.4414961 -0.036212932 0.3151177 0.1043899
-0.24692301 -0.20788947 0.38151217 0.05318106 0.08305983 -0.27456844 -0.18877943 -0.062094294
0.12029427 -0.17616123 -0.138168 0.03465792 0.21085413 0.3109398 0.13319716 -0.09485736
-0.33334884 0.3160436 -0.13935961 0.21764798 0.17553599 0.03196453 -0.32412466 0.23434187
0.25467306 0.09732877 0.22585274 -0.18719573 0.17011182 -0.30586177 0.4010576 -0.34034657
0.11091892 0.23741795 0.28196487 -0.2311425 -0.23930916 0.0028085022 -0.27424893 -0.20188895
-0.028460657 0.09173125 0.005439625 0.09555409 -0.12513159 0.08000345 -0.10538246 -0.06876376
-0.13494058 -0.11363557 -0.17180866 -0.079675235 -0.13829023 -0.10667247 0.13994274 -0.18475743
-0.014772654 -0.051872578 0.12819035 -0.100613825 0.027635753 -0.0347249 -0.036332596 -0.031789623
-0.17972462 -0.0073567396 0.04958831 -0.0712527 -0.068430394 -0.020145891 -0.0149615295 -0.18587436
-0.03285623 0.1581063 -0.017214142 -0.023286324 0.01857085 -0.05832711 0.17407164 -0.10875269
-0.14975537 -0.0948064 -0.098621726 -0.15910256 -0.046605688 -0.11236604 0.073563196 -0.124261886
-0.14225543 0.13686255 -0.1054711 -0.092493996 0.13365695 -0.13022509 -0.098490946 -0.029778054
-0.16796488 0.019210765 -0.13894533 -0.045196466 -0.0074392557 -0.004380006 0.11602966 0.12743011
0.09354554 0.058157787 -0.19492729 0.097386055 0.093593724 0.13249771 0.0875546 0.11516787
-0.19409841 0.24889655 0.051905647 0.12951416 0.16111037 0.20454317 -0.14756994 0.07631591
0.1316733 -5.778549e-05 0.23407787 0.07160812 0.3116373 -0.07540111 0.25147495 -0.050835505
-0.0040319585 0.08315212 0.14785612 0.12621291 -0.070930116 0.060690902 -0.24067454 -0.36949942
-0.1868981 -0.09845738 -0.09427254 -0.14719133 -0.16981716 -0.19148397 0.00046923017 0.06836507
0.015979417 0.0439316 0.07889858 -0.16750628 -0.059466783 0.13386835 -0.14172158 -0.12165226
-0.0430628 0.05728639 -0.18664902 -0.11147066 0.027597476 0.081494786 -0.17200458 -0.18937251
-0.089950874 -0.03721671 -0.16523711 -0.056201525 -0.034912247 0.1453863 0.05280401 0.10770348
00000000: 7fb9 07be d61e 663e 4907 693e 59ea 3bbe
00000010: 1a74 62be 4826 493e 85cb e1bd 0d3b dbbd
00000020: 3b4c ad3d b635 55bd 95e8 383e a552 05be
00000030: a3fe c6bd e29b 9cbe 4071 093e c569 02be
00000040: a036 a3be e906 90be 0063 453e 6d16 fc3d
00000050: 84e0 5c3e c4df 9c3d 69ca 353e a66a 213e
00000060: 44b0 a2be d8e7 a53d 1cfe f73c 53c9 ae3d
00000070: 5ed4 343e f3ad d7bd 53bd 233e e2c4 db3d
00000080: bf41 23bd 02a8 f83d 0127 ebbc 73a0 2f3e
00000090: ddff ff3d 5637 e6be 653d 453e 097c 00bb
000000a0: efa4 9c3d dd85 33be 4980 5d3d f1cd 073e
000000b0: 1237 b9bd 2515 f43d aa3a aa3d b6f8 bfbd
000000c0: 48f9 4a3e 22cc e03d 3f5d 69be e8aa 283e
000000d0: ee0d 0ebf 48a8 743d eb71 d3bd afc9 113d
000000e0: fe73 c63d bab2 573e d86e 8fbe 8987 e3bc
000000f0: 4311 dd3c 1ada 223e 7b0b 093e 462e 873e
00000100: 1007 45be edc0 dd3d e330 ba3d da1a 92be
00000110: a4d3 7dbe 8885 e63e 3d54 84be 9bdb adbd
00000120: 57b8 11be c9a2 a73c a424 c83d d944 08be
00000130: 5162 f53d 4595 62be 3ead 013e 54bb 16be
00000140: acfa efbe 0e12 d4bd f183 c03e ff44 363e
00000150: c70b e23e 0354 14bd 1b57 a13e 5fca d53d
00000160: 63d9 7cbe fae0 54be 9055 c33e 62d4 593d
00000170: 461b aa3d 3c94 8cbe 654f 41be 9656 7ebd
00000180: d85c f63d 9c63 34be ea7b 0dbe 77f5 0d3d
00000190: 25ea 573e 8033 9f3e d664 083e 9344 c2bd
000001a0: b3ac aabe 77d0 a13e 49b4 0ebe 1ddf 5e3e
000001b0: b5bf 333e 3ded 023d abf3 a5be 51f7 6f3e
000001c0: 8264 823e 4e54 c73d f145 673e 3db0 3fbe
000001d0: cb31 2e3e ea99 9cbe 6c57 cd3e e841 aebe
000001e0: 7529 e33d b11d 733e b35d 903e 9fb0 6cbe
000001f0: 760d 75be d90e 383b 5b6a 8cbe fabb 4ebe
00000200: 5326 e9bc 98dd bb3d e23e b23b ddb1 c33d
00000210: 7f22 00be d9d8 a33d c2d2 d7bd 04d4 8cbd
00000220: dd2d 0abe c4b9 e8bd 9cee 2fbe c52c a3bd
00000230: f49b 0dbe 1977 dabd 264d 0f3e 0d31 3dbe
00000240: 0009 72bc 5778 54bd 5544 033e 9f0e cebd
00000250: 6064 e23c b23b 0ebd 7dd1 14bd d635 02bd
00000260: bb09 38be ce10 f1bb 1d1d 4b3d f0ec 91bd
00000270: 3c25 8cbd ff08 a5bc 3421 75bc d955 3ebe
00000280: 4194 06bd 9ee6 213e ac04 8dbc f6c2 bebc
00000290: e521 983c 68e8 6ebd d63f 323e bbb9 debd
000002a0: 7959 19be dc29 c2bd 30fa c9bd c8eb 22be
000002b0: 9be5 3ebd 2b20 e6bd 4da8 963d 047d febd
000002c0: 68ab 11be b225 0c3e 3b01 d8bd 7e6d bdbd
000002d0: 5edd 083e ba59 05be 9fb5 c9bd 1bf1 f3bc
000002e0: fcfe 2bbe e55f 9d3c af47 0ebe ee1f 39bd
000002f0: 00c5 f3bb 2786 8fbb f5a0 ed3d 0a7d 023e
00000300: ce94 bf3d dc36 6e3d 059b 47be 5772 c73d
00000310: 11ae bf3d 7bad 073e d34f b33d 22dd eb3d
00000320: bcc1 46be bdde 7e3e 049b 543d 5c9f 043e
00000330: 1efa 243e c473 513e 931c 17be 844b 9c3d
00000340: 5ed5 063e b35e 72b8 1cb2 6f3e 47a7 923d
00000350: ed8e 9f3e e66b 9abd 53c1 803e e438 50bd
00000360: 851e 84bb a94b aa3d 9867 173e f53d 013e
00000370: cf43 91bd 0697 783d 6373 76be 072f bdbe
00000380: 3762 3fbe 06a4 c9bd f611 c1bd 53b9 16be
00000390: 8de4 2dbe 6014 44be 0203 f639 fc02 8c3d
000003a0: 44e7 823c 9ff1 333d 9495 a13d c486 2bbe
000003b0: 7193 73bd c914 093e 761f 11be d224 f9bd
000003c0: 9e62 30bd 22a5 6a3d ec20 3fbe bb4a e4bd
000003d0: 1a14 e23c bde6 a63d f821 30be deea 41be
000003e0: 2a38 b8bd 8d70 18bd eb33 29be 9233 66bd
000003f0: 2500 0fbd 25e0 143e 0549 583d a493 dc3d

bias f4 [16]
0.15958114 -0.068625174 0.01581789 -0.27368873 -0.1301581 0.036629066 0.046386924 0.15762341
-0.05686818 -0.13489093 0.041619863 0.01945861 -0.22159827 0.119158894 -0.3240312 0.035525985
00000000: 3d69 233e 5b8b 8cbd 8594 813c ee20 8cbe
00000010: 2a48 05be 5c08 163d 3700 3e3d 0868 213e
00000020: 9cee 68bd d920 0abe 9779 2a3d aa67 9f3c
00000030: a8ea 62be 9409 f43d 6be7 a5be b283 113d

weight f4 [1, 16]
0.49282005 0.32983515 0.698728 -0.86721796 -0.043604158 -0.053649634 -0.26449054 0.17884806
0.07635752 -0.006918907 -0.8042081 0.44948113 -0.55304486 0.17581567 -1.5728813 0.20873564
00000000: e952 fc3e 27e0 a83e d7df 323f ff01 5ebf
00000010: 469a 32bd b8bf 5bbd 4e6b 87be f223 373e
00000020: 5561 9c3d 00b8 e2bb 95e0 4dbf 6422 e63e
00000030: 5994 0dbf 0609 343e 2d54 c9bf ccbe 553e
